…
      sampler {
        min_scale: 0.3
        max_scale: 1
        min_aspect_ratio: 0.5
        max_aspect_ratio: 2
      }
      sample_constraint {
        min_jaccard_overlap: 0.9
      }
      max_sample: 1
      max_trials: 50
    }
    batch_sampler {
      sampler {
        min_scale: 0.3
        max_scale: 1
        min_aspect_ratio: 0.5
        max_aspect_ratio: 2
      }
      sample_constraint {
        max_jaccard_overlap: 1
      }
      max_sample: 1
      max_trials: 50
    }
    label_map_file: "data/VOC0712/labelmap_voc.prototxt"
  }
}
layer {
  name: "conv1_1"
  type: "Convolution"
  bottom: "data"
  top: "conv1_1"
  param {
    lr_mult: 1
    decay_mult: 1
  }
  param {
    lr_mult: 2
    decay_mult: 0
  }
  convolution_param {
    num_output: 64
    pad: 1
    kernel_size: 3
    weight_filler {
      type: "xavier"
    }
    bias_filler {
      type: "constant"
      value: 0
    }
  }
}
layer {
  name: "relu1_1"
  type: "ReLU"
  bottom: "conv1_1"
  top: "conv1_1"
}
layer {
  name: "conv1_2"
  type: "Convolution"
  bottom: "conv1_1"
  top: "conv1_2"
  param {
    lr_mult: 1
    decay_mult: 1
  }
  param {
    lr_mult: 2
    decay_mult: 0
  }
  convolution_param {
    num_output: 64
    pad: 1
    kernel_size: 3
    weight_filler {
      type: "xavier"
    }
    bias_filler {
      type: "constant"
      value: 0
    }
  }
}
layer {
  name: "relu1_2"
  type: "ReLU"
  bottom: "conv1_2"
  top: "conv1_2"
}
layer {
  name: "pool1"
  type: "Pooling"
  bottom: "conv1_2"
  top: "pool1"
  pooling_param {
    pool: MAX
    kernel_size: 2
    stride: 2
  }
}
layer {
  name: "conv2_1"
  type: "Convolution"
  bottom: "pool1"
  top: "conv2_1"
  param {
    lr_mult: 1
    decay_mult: 1
  }
  param {
    lr_mult: 2
    decay_mult: 0
  }
  convolution_param {
    num_output: 128
    pad: 1
    kernel_size: 3
    weight_filler {
      type: "xavier"
    }
    bias_filler {
      type: "constant"
      value: 0
    }
  }
}
layer {
  name: "relu2_1"
  type: "ReLU"
  bottom: "conv2_1"
  top: "conv2_1"
}
layer {
  name: "conv2_2"
  type: "Convolution"
  bottom: "conv2_1"
  top: "conv2_2"
  param {
    lr_mult: 1
    decay_mult: 1
  }
  param {
    lr_mult: 2
    decay_mult: 0
  }
  convolution_param {
    num_output: 128
    pad: 1
    kernel_size: 3
    weight_filler {
      type: "xavier"
    }
    bias_filler {
      type: "constant"
      value: 0
    }
  }
}
layer {
  name: "relu2_2"
  type: "ReLU"
  bottom: "conv2_2"
  top: "conv2_2"
}
layer {
  name: "pool2"
  type: "Pooling"
  bottom: "conv2_2"
  top: "pool2"
  pooling_param {
    pool: MAX
    kernel_size: 2
    stride: 2
  }
}
layer {
  name: "conv3_1"
  type: "Convolution"
  bottom: "pool2"
  top: "conv3_1"
  param {
    lr_mult: 1
    decay_mult: 1
  }
  param {
    lr_mult: 2
    decay_mult: 0
  }
  convolution_param {
    num_output: 256
    pad: 1
    kernel_size: 3
    weight_filler {
      type: "xavier"
    }
    bias_filler {
      type: "constant"
      value: 0
    }
  }
}
layer {
  name: "relu3_1"
  type: "ReLU"
  bottom: "conv3_1"
  top: "conv3_1"
}
layer {
  name: "conv3_2"
  type: "Convolution"
  bottom: "conv3_1"
  top: "conv3_2"
  param {
    lr_mult: 1
    decay_mult: 1
  }
  param {
    lr_mult: 2
    decay_mult: 0
  }
  convolution_param {
    num_output: 256
    pad: 1
    kernel_size: 3
    weight_filler {
      type: "xavier"
    }
    bias_filler {
      type: "constant"
      value: 0
    }
  }
}
layer {
  name: "relu3_2"
  type: "ReLU"
  bottom: "conv3_2"
  top: "conv3_2"
}
layer {
  name: "conv3_3"
  type: "Convolution"
  bottom: "conv3_2"
  top: "conv3_3"
  param {
    lr_mult: 1
    decay_mult: 1
  }
  param {
    lr_mult: 2
    decay_mult: 0
  }
  convolution_param {
    num_output: 256
    pad: 1
    kernel_size: 3
    weight_filler {
      type: "xavier"
    }
    bias_filler {
      type: "constant"
      value: 0
    }
  }
}
layer {
  name: "relu3_3"
  type: "ReLU"
  bottom: "conv3_3"
  top: "conv3_3"
}
layer {
  name: "pool3"
  type: "Pooling"
  bottom: "conv3_3"
  top: "pool3"
  pooling_param {
    pool: MAX
    kernel_size: 2
    stride: 2
  }
}
layer {
  name: "conv4_1"
  type: "Convolution"
  bottom: "pool3"
  top: "conv4_1"
  param {
    lr_mult: 1
    decay_mult: 1
  }
  param {
    lr_mult: 2
    decay_mult: 0
  }
  convolution_param {
    num_output: 512
    pad: 1
    kernel_size: 3
    weight_filler {
      type: "xavier"
    }
    bias_filler {
      type: "constant"
      value: 0
    }
  }
}
layer {
  name: "relu4_1"
  type: "ReLU"
  bottom: "conv4_1"
  top: "conv4_1"
}
layer {
  name: "conv4_2"
  type: "Convolution"
  bottom: "conv4_1"
  top: "conv4_2"
  param {
    lr_mult: 1
    decay_mult: 1
  }
  param {
    lr_mult: 2
    decay_mult: 0
  }
  convolution_param {
    num_output: 512
    pad: 1
    kernel_size: 3
    weight_filler {
      type: "xavier"
    }
    bias_filler {
      type: "constant"
      value: 0
    }
  }
}
layer {
  name: "relu4_2"
  type: "ReLU"
  bottom: "conv4_2"
  top: "conv4_2"
}
layer {
  name: "conv4_3"
  type: "Convolution"
  bottom: "conv4_2"
  top: "conv4_3"
  param {
    lr_mult: 1
    decay_mult: 1
  }
  param {
    lr_mult: 2
    decay_mult: 0
  }
  convolution_param {
    num_output: 512
    pad: 1
    kernel_size: 3
    weight_filler {
      type: "xavier"
    }
    bias_filler {
      type: "constant"
      value: 0
    }
  }
}
layer {
  name: "relu4_3"
  type: "ReLU"
  bottom: "conv4_3"
  top: "conv4_3"
}
layer {
  name: "pool4"
  type: "Pooling"
  bottom: "conv4_3"
  top: "pool4"
  pooling_param {
    pool: MAX
    kernel_size: 2
    stride: 2
  }
}
layer {
  name: "conv5_1"
  type: "Convolution"
  bottom: "pool4"
  top: "conv5_1"
  param {
    lr_mult: 1
    decay_mult: 1
  }
  param {
    lr_mult: 2
    decay_mult: 0
  }
  convolution_param {
    num_output: 512
    pad: 1
    kernel_size: 3
    weight_filler {
      type: "xavier"
    }
    bias_filler {
      type: "constant"
      value: 0
    }
    dilation: 1
  }
}
layer {
  name: "relu5_1"
  type: "ReLU"
  bottom: "conv5_1"
  top: "conv5_1"
}
layer {
  name: "conv5_2"
  type: "Convolution"
  bottom: "conv5_1"
  top: "conv5_2"
  param {
    lr_mult: 1
    decay_mult: 1
  }
  param {
    lr_mult: 2
    decay_mult: 0
  }
  convolution_param {
    num_output: 512
    pad: 1
    kernel_size: 3
    weight_filler {
      type: "xavier"
    }
    bias_filler {
      type: "constant"
      value: 0
    }
    dilation: 1
  }
}
layer {
  name: "relu5_2"
  type: "ReLU"
  bottom: "conv5_2"
  top: "conv5_2"
}
layer {
  name: "conv5_3"
  type: "Convolution"
  bottom: "conv5_2"
  top: "conv5_3"
  param {
    lr_mult: 1
    decay_mult: 1
  }
  param {
    lr_mult: 2
    decay_mult: 0
  }
  convolution_param {
    num_output: 512
    pad: 1
    kernel_size: 3
    weight_filler {
      type: "xavier"
    }
    bias_filler {
      type: "constant"
      value: 0
    }
    dilation: 1
  }
}
layer {
  name: "relu5_3"
  type: "ReLU"
  bottom: "conv5_3"
  top: "conv5_3"
}
layer {
  name: "pool5"
  type: "Pooling"
  bottom: "conv5_3"
  top: "pool5"
  pooling_param {
    pool: MAX
    kernel_size: 3
    stride: 1
    pad: 1
  }
}
layer {
  name: "fc6"
  type: "Convolution"
  bottom: "pool5"
  top: "fc6"
  param {
    lr_mult: 1
    decay_mult: 1
  }
  param {
    lr_mult: 2
    decay_mult: 0
  }
  convolution_param {
    num_output: 1024
    pad: 6
    kernel_size: 3
    weight_filler {
      type: "xavier"
    }
    bias_filler {
      type: "constant"
      value: 0
    }
    dilation: 6
  }
}
layer {
  name: "relu6"
  type: "ReLU"
  bottom: "fc6"
  top: "fc6"
}
layer {
  name: "fc7"
  type: "Convolution"
  bottom: "fc6"
  top: "fc7"
  param {
    lr_mult: 1
    decay_mult: 1
  }
  param {
    lr_mult: 2
    decay_mult: 0
  }
  convolution_param {
    num_output: 1024
    kernel_size: 1
    weight_filler {
      type: "xavier"
    }
    bias_filler {
      type: "constant"
      value: 0
    }
  }
}
layer {
  name: "relu7"
  type: "ReLU"
  bottom: "fc7"
  top: "fc7"
}
layer {
  name: "conv6_1"
  type: "Convolution"
  bottom: "fc7"
  top: "conv6_1"
  param {
    lr_mult: 1
    decay_mult: 1
  }
  param {
    lr_mult: 2
    decay_mult: 0
  }
  convolution_param {
    num_output: 256
    pad: 0
    kernel_size: 1
    stride: 1
    weight_filler {
      type: "xavier"
    }
    bias_filler {
      type: "constant"
      value: 0
    }
  }
}
layer {
  name: "conv6_1_relu"
  type: "ReLU"
  bottom: "conv6_1"
  top: "conv6_1"
}
layer {
  name: "conv6_2"
  type: "Convolution"
  bottom: "conv6_1"
  top: "conv6_2"
  param {
    lr_mult: 1
    decay_mult: 1
  }
  param {
    lr_mult: 2
    decay_mult: 0
  }
  convolution_param {
    num_output: 512
    pad: 1
    kernel_size: 3
    stride: 2
    weight_filler {
      type: "xavier"
    }
    bias_filler {
      type: "constant"
      value: 0
    }
  }
}
layer {
  name: "conv6_2_relu"
  type: "ReLU"
  bottom: "conv6_2"
  top: "conv6_2"
}
layer {
  name: "conv7_1"
  type: "Convolution"
  bottom: "conv6_2"
  top: "conv7_1"
  param {
    lr_mult: 1
    decay_mult: 1
  }
  param {
    lr_mult: 2
    decay_mult: 0
  }
  convolution_param {
    num_output: 128
    pad: 0
    kernel_size: 1
    stride: 1
    weight_filler {
      type: "xavier"
    }
    bias_filler {
      type: "constant"
      value: 0
    }
  }
}
layer {
  name: "conv7_1_relu"
  type: "ReLU"
  bottom: "conv7_1"
  top: "conv7_1"
}
layer {
  name: "conv7_2"
  type: "Convolution"
  bottom: "conv7_1"
  top: "conv7_2"
  param {
    lr_mult: 1
    decay_mult: 1
  }
  param {
    lr_mult: 2
    decay_mult: 0
  }
  convolution_param {
    num_output: 256
    pad: 1
    kernel_size: 3
    stride: 2
    weight_filler {
      type: "xavier"
    }
    bias_filler {
      type: "constant"
      value: 0
    }
  }
}
layer {
  name: "conv7_2_relu"
  type: "ReLU"
  bottom: "conv7_2"
  top: "conv7_2"
}
layer {
  name: "conv8_1"
  type: "Convolution"
  bottom: "conv7_2"
  top: "conv8_1"
  param {
    lr_mult: 1
    decay_mult: 1
  }
  param {
    lr_mult: 2
    decay_mult: 0
  }
  convolution_param {
    num_output: 128
    pad: 0
    kernel_size: 1
    stride: 1
    weight_filler {
      type: "xavier"
    }
    bias_filler {
      type: "constant"
      value: 0
    }
  }
}
layer {
  name: "conv8_1_relu"
  type: "ReLU"
  bottom: "conv8_1"
  top: "conv8_1"
}
layer {
  name: "conv8_2"
  type: "Convolution"
  bottom: "conv8_1"
  top: "conv8_2"
  param {
    lr_mult: 1
    decay_mult: 1
  }
  param {
    lr_mult: 2
    decay_mult: 0
  }
  convolution_param {
    num_output: 256
    pad: 0
    kernel_size: 3
    stride: 1
    weight_filler {
      type: "xavier"
    }
    bias_filler {
      type: "constant"
      value: 0
    }
  }
}
layer {
  name: "conv8_2_relu"
  type: "ReLU"
  bottom: "conv8_2"
  top: "conv8_2"
}
layer {
  name: "conv9_1"
  type: "Convolution"
  bottom: "conv8_2"
  top: "conv9_1"
  param {
    lr_mult: 1
    decay_mult: 1
  }
  param {
    lr_mult: 2
    decay_mult: 0
  }
  convolution_param {
    num_output: 128
    pad: 0
    kernel_size: 1
    stride: 1
    weight_filler {
      type: "xavier"
    }
    bias_filler {
      type: "constant"
      value: 0
    }
  }
}
layer {
  name: "conv9_1_relu"
  type: "ReLU"
  bottom: "conv9_1"
  top: "conv9_1"
}
layer {
  name: "conv9_2"
  type: "Convolution"
  bottom: "conv9_1"
  top: "conv9_2"
  param {
    lr_mult: 1
    decay_mult: 1
  }
  param {
    lr_mult: 2
    decay_mult: 0
  }
  convolution_param {
    num_output: 256
    pad: 0
    kernel_size: 3
    stride: 1
    weight_filler {
      type: "xavier"
    }
    bias_filler {
      type: "constant"
      value: 0
    }
  }
}
layer {
  name: "conv9_2_relu"
  type: "ReLU"
  bottom: "conv9_2"
  top: "conv9_2"
}
layer {
  name: "conv4_3_norm"
  type: "Normalize"
  bottom: "conv4_3"
  top: "conv4_3_norm"
  norm_param {
    across_spatial: false
    scale_filler {
      type: "constant"
      value: 20
    }
    channel_shared: false
  }
}
layer {
  name: "conv4_3_norm_mbox_loc"
  type: "Convolution"
  bottom: "conv4_3_norm"
  top: "conv4_3_norm_mbox_loc"
  param {
    lr_mult: 1
    decay_mult: 1
  }
  param {
    lr_mult: 2
    decay_mult: 0
  }
  convolution_param {
    num_output: 16
    pad: 1
    kernel_size: 3
    stride: 1
    weight_filler {
      type: "xavier"
    }
    bias_filler {
      type: "constant"
      value: 0
    }
  }
}
layer {
  name: "conv4_3_norm_mbox_loc_perm"
  type: "Permute"
  bottom: "conv4_3_norm_mbox_loc"
  top: "conv4_3_norm_mbox_loc_perm"
  permute_param {
    order: 0
    order: 2
    order: 3
    order: 1
  }
}
layer {
  name: "conv4_3_norm_mbox_loc_flat"
  type: "Flatten"
  bottom: "conv4_3_norm_mbox_loc_perm"
  top: "conv4_3_norm_mbox_loc_flat"
  flatten_param {
    axis: 1
  }
}
layer {
  name: "conv4_3_norm_mbox_conf"
  type: "Convolution"
  bottom: "conv4_3_norm"
  top: "conv4_3_norm_mbox_conf"
  param {
    lr_mult: 1
    decay_mult: 1
  }
  param {
    lr_mult: 2
    decay_mult: 0
  }
  convolution_param {
    num_output: 84
    pad: 1
    kernel_size: 3
    stride: 1
    weight_filler {
      type: "xavier"
    }
    bias_filler {
      type: "constant"
      value: 0
    }
  }
}
layer {
  name: "conv4_3_norm_mbox_conf_perm"
  type: "Permute"
  bottom: "conv4_3_norm_mbox_conf"
  top: "conv4_3_norm_mbox_conf_perm"
  permute_param {
    order: 0
    order: 2
    order: 3
    order: 1
  }
}
layer {
  name: "conv4_3_norm_mbox_conf_flat"
  type: "Flatten"
  bottom: "conv4_3_norm_mbox_conf_perm"
  top: "conv4_3_norm_mbox_conf_flat"
  flatten_param {
    axis: 1
  }
}
layer {
  name: "conv4_3_norm_mbox_priorbox"
  type: "PriorBox"
  bottom: "conv4_3_norm"
  bottom: "data"
  top: "conv4_3_norm_mbox_priorbox"
  prior_box_param {
    min_size: 30
    max_size: 60
    aspect_ratio: 2
    flip: true
    clip: false
    variance: 0.1
    variance: 0.1
    variance: 0.2
    variance: 0.2
    step: 8
    offset: 0.5
  }
}
layer {
  name: "fc7_mbox_loc"
  type: "Convolution"
  bottom: "fc7"
  top: "fc7_mbox_loc"
  param {
    lr_mult: 1
    decay_mult: 1
  }
  param {
    lr_mult: 2
    decay_mult: 0
  }
  convolution_param {
    num_output: 24
    pad: 1
    kernel_size: 3
    stride: 1
    weight_filler {
      type: "xavier"
    }
    bias_filler {
      type: "constant"
      value: 0
    }
  }
}
layer {
  name: "fc7_mbox_loc_perm"
  type: "Permute"
  bottom: "fc7_mbox_loc"
  top: "fc7_mbox_loc_perm"
  permute_param {
    order: 0
    order: 2
    order: 3
    order: 1
  }
}
layer {
  name: "fc7_mbox_loc_flat"
  type: "Flatten"
  bottom: "fc7_mbox_loc_perm"
  top: "fc7_mbox_loc_flat"
  flatten_param {
    axis: 1
  }
}
layer {
  name: "fc7_mbox_conf"
  type: "Convolution"
  bottom: "fc7"
  top: "fc7_mbox_conf"
  param {
    lr_mult: 1
    decay_mult: 1
  }
  param {
    lr_mult: 2
    decay_mult: 0
  }
  convolution_param {
    num_output: 126
    pad: 1
    kernel_size: 3
    stride: 1
    weight_filler {
      type: "xavier"
    }
    bias_filler {
      type: "constant"
      value: 0
    }
  }
}
layer {
  name: "fc7_mbox_conf_perm"
  type: "Permute"
  bottom: "fc7_mbox_conf"
  top: "fc7_mbox_conf_perm"
  permute_param {
    order: 0
    order: 2
    order: 3
    order: 1
  }
}
layer {
  name: "fc7_mbox_conf_flat"
  type: "Flatten"
  bottom: "fc7_mbox_conf_perm"
  top: "fc7_mbox_conf_flat"
  flatten_param {
    axis: 1
  }
}
layer {
  name: "fc7_mbox_priorbox"
  type: "PriorBox"
  bottom: "fc7"
  bottom: "data"
  top: "fc7_mbox_priorbox"
  prior_box_param {
    min_size: 60
    max_size: 111
    aspect_ratio: 2
    aspect_ratio: 3
    flip: true
    clip: false
    variance: 0.1
    variance: 0.1
    variance: 0.2
    variance: 0.2
    step: 16
    offset: 0.5
  }
}
layer {
  name: "conv6_2_mbox_loc"
  type: "Convolution"
  bottom: "conv6_2"
  top: "conv6_2_mbox_loc"
  param {
    lr_mult: 1
    decay_mult: 1
  }
  param {
    lr_mult: 2
    decay_mult: 0
  }
  convolution_param {
    num_output: 24
    pad: 1
    kernel_size: 3
    stride: 1
    weight_filler {
      type: "xavier"
    }
    bias_filler {
      type: "constant"
      value: 0
    }
  }
}
layer {
  name: "conv6_2_mbox_loc_perm"
  type: "Permute"
  bottom: "conv6_2_mbox_loc"
  top: "conv6_2_mbox_loc_perm"
  permute_param {
    order: 0
    order: 2
    order: 3
    order: 1
  }
}
layer {
  name: "conv6_2_mbox_loc_flat"
  type: "Flatten"
  bottom: "conv6_2_mbox_loc_perm"
  top: "conv6_2_mbox_loc_flat"
  flatten_param {
    axis: 1
  }
}
layer {
  name: "conv6_2_mbox_conf"
  type: "Convolution"
  bottom: "conv6_2"
  top: "conv6_2_mbox_conf"
  param {
    lr_mult: 1
    decay_mult: 1
  }
  param {
    lr_mult: 2
    decay_mult: 0
  }
  convolution_param {
    num_output: 126
    pad: 1
    kernel_size: 3
    stride: 1
    weight_filler {
      type: "xavier"
    }
    bias_filler {
      type: "constant"
      value: 0
    }
  }
}
layer {
  name: "conv6_2_mbox_conf_perm"
  type: "Permute"
  bottom: "conv6_2_mbox_conf"
  top: "conv6_2_mbox_conf_perm"
  permute_param {
    order: 0
    order: 2
    order: 3
    order: 1
  }
}
layer {
  name: "conv6_2_mbox_conf_flat"
  type: "Flatten"
  bottom: "conv6_2_mbox_conf_perm"
  top: "conv6_2_mbox_conf_flat"
  flatten_param {
    axis: 1
  }
}
layer {
  name: "conv6_2_mbox_priorbox"
  type: "PriorBox"
  bottom: "conv6_2"
  bottom: "data"
  top: "conv6_2_mbox_priorbox"
  prior_box_param {
    min_size: 111
    max_size: 162
    aspect_ratio: 2
    aspect_ratio: 3
    flip: true
    clip: false
    variance: 0.1
    variance: 0.1
    variance: 0.2
    variance: 0.2
    step: 32
    offset: 0.5
  }
}
layer {
  name: "conv7_2_mbox_loc"
  type: "Convolution"
  bottom: "conv7_2"
  top: "conv7_2_mbox_loc"
  param {
    lr_mult: 1
    decay_mult: 1
  }
  param {
    lr_mult: 2
    decay_mult: 0
  }
  convolution_param {
    num_output: 24
    pad: 1
    kernel_size: 3
    stride: 1
    weight_filler {
      type: "xavier"
    }
    bias_filler {
      type: "constant"
      value: 0
    }
  }
}
layer {
  name: "conv7_2_mbox_loc_perm"
  type: "Permute"
  bottom: "conv7_2_mbox_loc"
  top: "conv7_2_mbox_loc_perm"
  permute_param {
    order: 0
    order: 2
    order: 3
    order: 1
  }
}
layer {
  name: "conv7_2_mbox_loc_flat"
  type: "Flatten"
  bottom: "conv7_2_mbox_loc_perm"
  top: "conv7_2_mbox_loc_flat"
  flatten_param {
    axis: 1
  }
}
layer {
  name: "conv7_2_mbox_conf"
  type: "Convolution"
  bottom: "conv7_2"
  top: "conv7_2_mbox_conf"
  param {
    lr_mult: 1
    decay_mult: 1
  }
  param {
    lr_mult: 2
    decay_mult: 0
  }
  convolution_param {
    num_output: 126
    pad: 1
    kernel_size: 3
    stride: 1
    weight_filler {
      type: "xavier"
    }
    bias_filler {
      type: "constant"
      value: 0
    }
  }
}
layer {
  name: "conv7_2_mbox_conf_perm"
  type: "Permute"
  bottom: "conv7_2_mbox_conf"
  top: "conv7_2_mbox_conf_perm"
  permute_param {
    order: 0
    order: 2
    order: 3
    order: 1
  }
}
layer {
  name: "conv7_2_mbox_conf_flat"
  type: "Flatten"
  bottom: "conv7_2_mbox_conf_perm"
  top: "conv7_2_mbox_conf_flat"
  flatten_param {
    axis: 1
  }
}
layer {
  name: "conv7_2_mbox_priorbox"
  type: "PriorBox"
  bottom: "conv7_2"
  bottom: "data"
  top: "conv7_2_mbox_priorbox"
  prior_box_param {
    min_size: 162
    max_size: 213
    aspect_ratio: 2
    aspect_ratio: 3
    flip: true
    clip: false
    variance: 0.1
    variance: 0.1
    variance: 0.2
    variance: 0.2
    step: 64
    offset: 0.5
  }
}
layer {
  name: "conv8_2_mbox_loc"
  type: "Convolution"
  bottom: "conv8_2"
  top: "conv8_2_mbox_loc"
  param {
    lr_mult: 1
    decay_mult: 1
  }
  param {
    lr_mult: 2
    decay_mult: 0
  }
  convolution_param {
    num_output: 16
    pad: 1
    kernel_size: 3
    stride: 1
    weight_filler {
      type: "xavier"
    }
    bias_filler {
      type: "constant"
      value: 0
    }
  }
}
layer {
  name: "conv8_2_mbox_loc_perm"
  type: "Permute"
  bottom: "conv8_2_mbox_loc"
  top: "conv8_2_mbox_loc_perm"
  permute_param {
    order: 0
    order: 2
    order: 3
    order: 1
  }
}
layer {
  name: "conv8_2_mbox_loc_flat"
  type: "Flatten"
  bottom: "conv8_2_mbox_loc_perm"
  top: "conv8_2_mbox_loc_flat"
  flatten_param {
    axis: 1
  }
}
layer {
  name: "conv8_2_mbox_conf"
  type: "Convolution"
  bottom: "conv8_2"
  top: "conv8_2_mbox_conf"
  param {
    lr_mult: 1
    decay_mult: 1
  }
  param {
    lr_mult: 2
    decay_mult: 0
  }
  convolution_param {
    num_output: 84
    pad: 1
    kernel_size: 3
    stride: 1
    weight_filler {
      type: "xavier"
    }
    bias_filler {
      type: "constant"
      value: 0
    }
  }
}
layer {
  name: "conv8_2_mbox_conf_perm"
  type: "Permute"
  bottom: "conv8_2_mbox_conf"
  top: "conv8_2_mbox_conf_perm"
  permute_param {
    order: 0
    order: 2
    order: 3
    order: 1
  }
}
layer {
  name: "conv8_2_mbox_conf_flat"
  type: "Flatten"
  bottom: "conv8_2_mbox_conf_perm"
  top: "conv8_2_mbox_conf_flat"
  flatten_param {
    axis: 1
  }
}
layer {
  name: "conv8_2_mbox_priorbox"
  type: "PriorBox"
  bottom: "conv8_2"
  bottom: "data"
  top: "conv8_2_mbox_priorbox"
  prior_box_param {
    min_size: 213
    max_size: 264
    aspect_ratio: 2
    flip: true
    clip: false
    variance: 0.1
    variance: 0.1
    variance: 0.2
    variance: 0.2
    step: 100
    offset: 0.5
  }
}
layer {
  name: "conv9_2_mbox_loc"
  type: "Convolution"
  bottom: "conv9_2"
  top: "conv9_2_mbox_loc"
  param {
    lr_mult: 1
    decay_mult: 1
  }
  param {
    lr_mult: 2
    decay_mult: 0
  }
  convolution_param {
    num_output: 16
    pad: 1
    kernel_size: 3
    stride: 1
    weight_filler {
      type: "xavier"
    }
    bias_filler {
      type: "constant"
      value: 0
    }
  }
}
layer {
  name: "conv9_2_mbox_loc_perm"
  type: "Permute"
  bottom: "conv9_2_mbox_loc"
  top: "conv9_2_mbox_loc_perm"
  permute_param {
    order: 0
    order: 2
    order: 3
    order: 1
  }
}
layer {
  name: "conv9_2_mbox_loc_flat"
  type: "Flatten"
  bottom: "conv9_2_mbox_loc_perm"
  top: "conv9_2_mbox_loc_flat"
  flatten_param {
    axis: 1
  }
}
layer {
  name: "conv9_2_mbox_conf"
  type: "Convolution"
  bottom: "conv9_2"
  top: "conv9_2_mbox_conf"
  param {
    lr_mult: 1
    decay_mult: 1
  }
  param {
    lr_mult: 2
    decay_mult: 0
  }
  convolution_param {
    num_output: 84
    pad: 1
    kernel_size: 3
    stride: 1
    weight_filler {
      type: "xavier"
    }
    bias_filler {
      type: "constant"
      value: 0
    }
  }
}
layer {
  name: "conv9_2_mbox_conf_perm"
  type: "Permute"
  bottom: "conv9_2_mbox_conf"
  top: "conv9_2_mbox_conf_perm"
  permute_param {
    order: 0
    order: 2
    order: 3
    order: 1
  }
}
layer {
  name: "conv9_2_mbox_conf_flat"
  type: "Flatten"
  bottom: "conv9_2_mbox_conf_perm"
  top: "conv9_2_mbox_conf_flat"
  flatten_param {
    axis: 1
  }
}
layer {
  name: "conv9_2_mbox_priorbox"
  type: "PriorBox"
  bottom: "conv9_2"
  bottom: "data"
  top: "conv9_2_mbox_priorbox"
  prior_box_param {
    min_size: 264
    max_size: 315
    aspect_ratio: 2
    flip: true
    clip: false
    variance: 0.1
    variance: 0.1
    variance: 0.2
    variance: 0.2
    step: 300
    offset: 0.5
  }
}
layer {
  name: "mbox_loc"
  type: "Concat"
  bottom: "conv4_3_norm_mbox_loc_flat"
  bottom: "fc7_mbox_loc_flat"
  bottom: "conv6_2_mbox_loc_flat"
  bottom: "conv7_2_mbox_loc_flat"
  bottom: "conv8_2_mbox_loc_flat"
  bottom: "conv9_2_mbox_loc_flat"
  top: "mbox_loc"
  concat_param {
    axis: 1
  }
}
layer {
  name: "mbox_conf"
  type: "Concat"
  bottom: "conv4_3_norm_mbox_conf_flat"
  bottom: "fc7_mbox_conf_flat"
  bottom: "conv6_2_mbox_conf_flat"
  bottom: "conv7_2_mbox_conf_flat"
  bottom: "conv8_2_mbox_conf_flat"
  bottom: "conv9_2_mbox_conf_flat"
  top: "mbox_conf"
  concat_param {
    axis: 1
  }
}
layer {
  name: "mbox_priorbox"
  type: "Concat"
  bottom: "conv4_3_norm_mbox_priorbox"
  bottom: "fc7_mbox_priorbox"
  bottom: "conv6_2_mbox_priorbox"
  bottom: "conv7_2_mbox_priorbox"
  bottom: "conv8_2_mbox_priorbox"
  bottom: "conv9_2_mbox_priorbox"
  top: "mbox_priorbox"
  concat_param {
    axis: 2
  }
}
layer {
  name: "mbox_loss"
  type: "MultiBoxLoss"
  bottom: "mbox_loc"
  bottom: "mbox_conf"
  bottom: "mbox_priorbox"
  bottom: "label"
  top: "mbox_loss"
  include {
    phase: TRAIN
  }
  propagate_down: true
  propagate_down: true
  propagate_down: false
  propagate_down: false
  loss_param {
    normalization: VALID
  }
  multibox_loss_param {
    loc_loss_type: SMOOTH_L1
    conf_loss_type: SOFTMAX
    loc_weight: 1
    num_classes: 21
    share_location: true
    match_type: PER_PREDICTION
    overlap_threshold: 0.5
    use_prior_for_matching: true
    background_label_id: 0
    use_difficult_gt: true
    neg_pos_ratio: 3
    neg_overlap: 0.5
    code_type: CENTER_SIZE
    ignore_cross_boundary_bbox: false
    mining_type: MAX_NEGATIVE
  }
}
I0907 18:13:21.570488  2825 layer_factory.hpp:77] Creating layer data
I0907 18:13:21.570899  2825 net.cpp:100] Creating Layer data
I0907 18:13:21.570924  2825 net.cpp:408] data -> data
I0907 18:13:21.570960  2825 net.cpp:408] data -> label
I0907 18:13:21.571636  2832 db_lmdb.cpp:35] Opened lmdb examples/VOC0712/VOC0712_trainval_lmdb
I0907 18:13:21.580775  2825 annotated_data_layer.cpp:62] output data size: 2,3,300,300
I0907 18:13:21.584103  2825 net.cpp:150] Setting up data
I0907 18:13:21.584126  2825 net.cpp:157] Top shape: 2 3 300 300 (540000)
I0907 18:13:21.584131  2825 net.cpp:157] Top shape: 1 1 1 8 (8)
I0907 18:13:21.584132  2825 net.cpp:165] Memory required for data: 2160032
I0907 18:13:21.584153  2825 layer_factory.hpp:77] Creating layer data_data_0_split
I0907 18:13:21.584167  2825 net.cpp:100] Creating Layer data_data_0_split
I0907 18:13:21.584172  2825 net.cpp:434] data_data_0_split <- data
I0907 18:13:21.584184  2825 net.cpp:408] data_data_0_split -> data_data_0_split_0
I0907 18:13:21.584193  2825 net.cpp:408] data_data_0_split -> data_data_0_split_1
I0907 18:13:21.584199  2825 net.cpp:408] data_data_0_split -> data_data_0_split_2
I0907 18:13:21.584205  2825 net.cpp:408] data_data_0_split -> data_data_0_split_3
I0907 18:13:21.584210  2825 net.cpp:408] data_data_0_split -> data_data_0_split_4
I0907 18:13:21.584218  2825 net.cpp:408] data_data_0_split -> data_data_0_split_5
I0907 18:13:21.584223  2825 net.cpp:408] data_data_0_split -> data_data_0_split_6
I0907 18:13:21.584301  2825 net.cpp:150] Setting up data_data_0_split
I0907 18:13:21.584307  2825 net.cpp:157] Top shape: 2 3 300 300 (540000)
I0907 18:13:21.584311  2825 net.cpp:157] Top shape: 2 3 300 300 (540000)
I0907 18:13:21.584314  2825 net.cpp:157] Top shape: 2 3 300 300 (540000)
I0907 18:13:21.584318  2825 net.cpp:157] Top shape: 2 3 300 300 (540000)
I0907 18:13:21.584321  2825 net.cpp:157] Top shape: 2 3 300 300 (540000)
I0907 18:13:21.584324  2825 net.cpp:157] Top shape: 2 3 300 300 (540000)
I0907 18:13:21.584327  2825 net.cpp:157] Top shape: 2 3 300 300 (540000)
I0907 18:13:21.584329  2825 net.cpp:165] Memory required for data: 17280032
I0907 18:13:21.584332  2825 layer_factory.hpp:77] Creating layer conv1_1
I0907 18:13:21.584344  2825 net.cpp:100] Creating Layer conv1_1
I0907 18:13:21.584348  2825 net.cpp:434] conv1_1 <- data_data_0_split_0
I0907 18:13:21.584353  2825 net.cpp:408] conv1_1 -> conv1_1
I0907 18:13:21.585243  2825 net.cpp:150] Setting up conv1_1
I0907 18:13:21.585254  2825 net.cpp:157] Top shape: 2 64 300 300 (11520000)
I0907 18:13:21.585268  2825 net.cpp:165] Memory required for data: 63360032
I0907 18:13:21.585278  2825 layer_factory.hpp:77] Creating layer relu1_1
I0907 18:13:21.585286  2825 net.cpp:100] Creating Layer relu1_1
I0907 18:13:21.585289  2825 net.cpp:434] relu1_1 <- conv1_1
I0907 18:13:21.585294  2825 net.cpp:395] relu1_1 -> conv1_1 (in-place)
I0907 18:13:21.585299  2825 net.cpp:150] Setting up relu1_1
I0907 18:13:21.585301  2825 net.cpp:157] Top shape: 2 64 300 300 (11520000)
I0907 18:13:21.585304  2825 net.cpp:165] Memory required for data: 109440032
I0907 18:13:21.585305  2825 layer_factory.hpp:77] Creating layer conv1_2
I0907 18:13:21.585314  2825 net.cpp:100] Creating Layer conv1_2
I0907 18:13:21.585317  2825 net.cpp:434] conv1_2 <- conv1_1
I0907 18:13:21.585322  2825 net.cpp:408] conv1_2 -> conv1_2
I0907 18:13:21.585999  2825 net.cpp:150] Setting up conv1_2
I0907 18:13:21.586009  2825 net.cpp:157] Top shape: 2 64 300 300 (11520000)
I0907 18:13:21.586014  2825 net.cpp:165] Memory required for data: 155520032
I0907 18:13:21.586021  2825 layer_factory.hpp:77] Creating layer relu1_2
I0907 18:13:21.586028  2825 net.cpp:100] Creating Layer relu1_2
I0907 18:13:21.586030  2825 net.cpp:434] relu1_2 <- conv1_2
I0907 18:13:21.586035  2825 net.cpp:395] relu1_2 -> conv1_2 (in-place)
I0907 18:13:21.586041  2825 net.cpp:150] Setting up relu1_2
I0907 18:13:21.586045  2825 net.cpp:157] Top shape: 2 64 300 300 (11520000)
I0907 18:13:21.586047  2825 net.cpp:165] Memory required for data: 201600032
I0907 18:13:21.586050  2825 layer_factory.hpp:77] Creating layer pool1
I0907 18:13:21.586053  2825 net.cpp:100] Creating Layer pool1
I0907 18:13:21.586055  2825 net.cpp:434] pool1 <- conv1_2
I0907 18:13:21.586060  2825 net.cpp:408] pool1 -> pool1
I0907 18:13:21.586097  2825 net.cpp:150] Setting up pool1
I0907 18:13:21.586102  2825 net.cpp:157] Top shape: 2 64 150 150 (2880000)
I0907 18:13:21.586103  2825 net.cpp:165] Memory required for data: 213120032
I0907 18:13:21.586107  2825 layer_factory.hpp:77] Creating layer conv2_1
I0907 18:13:21.586114  2825 net.cpp:100] Creating Layer conv2_1
I0907 18:13:21.586117  2825 net.cpp:434] conv2_1 <- pool1
I0907 18:13:21.586122  2825 net.cpp:408] conv2_1 -> conv2_1
I0907 18:13:21.586606  2825 net.cpp:150] Setting up conv2_1
I0907 18:13:21.586613  2825 net.cpp:157] Top shape: 2 128 150 150 (5760000)
I0907 18:13:21.586616  2825 net.cpp:165] Memory required for data: 236160032
I0907 18:13:21.586622  2825 layer_factory.hpp:77] Creating layer relu2_1
I0907 18:13:21.586628  2825 net.cpp:100] Creating Layer relu2_1
I0907 18:13:21.586632  2825 net.cpp:434] relu2_1 <- conv2_1
I0907 18:13:21.586637  2825 net.cpp:395] relu2_1 -> conv2_1 (in-place)
I0907 18:13:21.586640  2825 net.cpp:150] Setting up relu2_1
I0907 18:13:21.586643  2825 net.cpp:157] Top shape: 2 128 150 150 (5760000)
I0907 18:13:21.586645  2825 net.cpp:165] Memory required for data: 259200032
I0907 18:13:21.586647  2825 layer_factory.hpp:77] Creating layer conv2_2
I0907 18:13:21.586653  2825 net.cpp:100] Creating Layer conv2_2
I0907 18:13:21.586657  2825 net.cpp:434] conv2_2 <- conv2_1
I0907 18:13:21.586661  2825 net.cpp:408] conv2_2 -> conv2_2
I0907 18:13:21.587779  2825 net.cpp:150] Setting up conv2_2
I0907 18:13:21.587788  2825 net.cpp:157] Top shape: 2 128 150 150 (5760000)
I0907 18:13:21.587791  2825 net.cpp:165] Memory required for data: 282240032
I0907 18:13:21.587795  2825 layer_factory.hpp:77] Creating layer relu2_2
I0907 18:13:21.587801  2825 net.cpp:100] Creating Layer relu2_2
I0907 18:13:21.587805  2825 net.cpp:434] relu2_2 <- conv2_2
I0907 18:13:21.587810  2825 net.cpp:395] relu2_2 -> conv2_2 (in-place)
I0907 18:13:21.587815  2825 net.cpp:150] Setting up relu2_2
I0907 18:13:21.587821  2825 net.cpp:157] Top shape: 2 128 150 150 (5760000)
I0907 18:13:21.587822  2825 net.cpp:165] Memory required for data: 305280032
I0907 18:13:21.587824  2825 layer_factory.hpp:77] Creating layer pool2
I0907 18:13:21.587828  2825 net.cpp:100] Creating Layer pool2
I0907 18:13:21.587831  2825 net.cpp:434] pool2 <- conv2_2
I0907 18:13:21.587836  2825 net.cpp:408] pool2 -> pool2
I0907 18:13:21.587862  2825 net.cpp:150] Setting up pool2
I0907 18:13:21.587867  2825 net.cpp:157] Top shape: 2 128 75 75 (1440000)
I0907 18:13:21.587868  2825 net.cpp:165] Memory required for data: 311040032
I0907 18:13:21.587870  2825 layer_factory.hpp:77] Creating layer conv3_1
I0907 18:13:21.587878  2825 net.cpp:100] Creating Layer conv3_1
I0907 18:13:21.587882  2825 net.cpp:434] conv3_1 <- pool2
I0907 18:13:21.587888  2825 net.cpp:408] conv3_1 -> conv3_1
I0907 18:13:21.589994  2825 net.cpp:150] Setting up conv3_1
I0907 18:13:21.590008  2825 net.cpp:157] Top shape: 2 256 75 75 (2880000)
I0907 18:13:21.590011  2825 net.cpp:165] Memory required for data: 322560032
I0907 18:13:21.590019  2825 layer_factory.hpp:77] Creating layer relu3_1
I0907 18:13:21.590026  2825 net.cpp:100] Creating Layer relu3_1
I0907 18:13:21.590029  2825 net.cpp:434] relu3_1 <- conv3_1
I0907 18:13:21.590034  2825 net.cpp:395] relu3_1 -> conv3_1 (in-place)
I0907 18:13:21.590040  2825 net.cpp:150] Setting up relu3_1
I0907 18:13:21.590044  2825 net.cpp:157] Top shape: 2 256 75 75 (2880000)
I0907 18:13:21.590046  2825 net.cpp:165] Memory required for data: 334080032
I0907 18:13:21.590049  2825 layer_factory.hpp:77] Creating layer conv3_2
I0907 18:13:21.590055  2825 net.cpp:100] Creating Layer conv3_2
I0907 18:13:21.590059  2825 net.cpp:434] conv3_2 <- conv3_1
I0907 18:13:21.590062  2825 net.cpp:408] conv3_2 -> conv3_2
I0907 18:13:21.593327  2825 net.cpp:150] Setting up conv3_2
I0907 18:13:21.593340  2825 net.cpp:157] Top shape: 2 256 75 75 (2880000)
I0907 18:13:21.593343  2825 net.cpp:165] Memory required for data: 345600032
I0907 18:13:21.593348  2825 layer_factory.hpp:77] Creating layer relu3_2
I0907 18:13:21.593354  2825 net.cpp:100] Creating Layer relu3_2
I0907 18:13:21.593358  2825 net.cpp:434] relu3_2 <- conv3_2
I0907 18:13:21.593361  2825 net.cpp:395] relu3_2 -> conv3_2 (in-place)
I0907 18:13:21.593366  2825 net.cpp:150] Setting up relu3_2
I0907 18:13:21.593369  2825 net.cpp:157] Top shape: 2 256 75 75 (2880000)
I0907 18:13:21.593372  2825 net.cpp:165] Memory required for data: 357120032
I0907 18:13:21.593374  2825 layer_factory.hpp:77] Creating layer conv3_3
I0907 18:13:21.593384  2825 net.cpp:100] Creating Layer conv3_3
I0907 18:13:21.593397  2825 net.cpp:434] conv3_3 <- conv3_2
I0907 18:13:21.593402  2825 net.cpp:408] conv3_3 -> conv3_3
I0907 18:13:21.596758  2825 net.cpp:150] Setting up conv3_3
I0907 18:13:21.596784  2825 net.cpp:157] Top shape: 2 256 75 75 (2880000)
I0907 18:13:21.596787  2825 net.cpp:165] Memory required for data: 368640032
I0907 18:13:21.596796  2825 layer_factory.hpp:77] Creating layer relu3_3
I0907 18:13:21.596807  2825 net.cpp:100] Creating Layer relu3_3
I0907 18:13:21.596812  2825 net.cpp:434] relu3_3 <- conv3_3
I0907 18:13:21.596819  2825 net.cpp:395] relu3_3 -> conv3_3 (in-place)
I0907 18:13:21.596827  2825 net.cpp:150] Setting up relu3_3
I0907 18:13:21.596832  2825 net.cpp:157] Top shape: 2 256 75 75 (2880000)
I0907 18:13:21.596834  2825 net.cpp:165] Memory required for data: 380160032
I0907 18:13:21.596837  2825 layer_factory.hpp:77] Creating layer pool3
I0907 18:13:21.596843  2825 net.cpp:100] Creating Layer pool3
I0907 18:13:21.596844  2825 net.cpp:434] pool3 <- conv3_3
I0907 18:13:21.596848  2825 net.cpp:408] pool3 -> pool3
I0907 18:13:21.596880  2825 net.cpp:150] Setting up pool3
I0907 18:13:21.596884  2825 net.cpp:157] Top shape: 2 256 38 38 (739328)
I0907 18:13:21.596886  2825 net.cpp:165] Memory required for data: 383117344
I0907 18:13:21.596889  2825 layer_factory.hpp:77] Creating layer conv4_1
I0907 18:13:21.596896  2825 net.cpp:100] Creating Layer conv4_1
I0907 18:13:21.596899  2825 net.cpp:434] conv4_1 <- pool3
I0907 18:13:21.596904  2825 net.cpp:408] conv4_1 -> conv4_1
I0907 18:13:21.604063  2825 net.cpp:150] Setting up conv4_1
I0907 18:13:21.604092  2825 net.cpp:157] Top shape: 2 512 38 38 (1478656)
I0907 18:13:21.604095  2825 net.cpp:165] Memory required for data: 389031968
I0907 18:13:21.604104  2825 layer_factory.hpp:77] Creating layer relu4_1
I0907 18:13:21.604120  2825 net.cpp:100] Creating Layer relu4_1
I0907 18:13:21.604125  2825 net.cpp:434] relu4_1 <- conv4_1
I0907 18:13:21.604130  2825 net.cpp:395] relu4_1 -> conv4_1 (in-place)
I0907 18:13:21.604140  2825 net.cpp:150] Setting up relu4_1
I0907 18:13:21.604145  2825 net.cpp:157] Top shape: 2 512 38 38 (1478656)
I0907 18:13:21.604146  2825 net.cpp:165] Memory required for data: 394946592
I0907 18:13:21.604148  2825 layer_factory.hpp:77] Creating layer conv4_2
I0907 18:13:21.604156  2825 net.cpp:100] Creating Layer conv4_2
I0907 18:13:21.604159  2825 net.cpp:434] conv4_2 <- conv4_1
I0907 18:13:21.604164  2825 net.cpp:408] conv4_2 -> conv4_2
I0907 18:13:21.616691  2825 net.cpp:150] Setting up conv4_2
I0907 18:13:21.616717  2825 net.cpp:157] Top shape: 2 512 38 38 (1478656)
I0907 18:13:21.616719  2825 net.cpp:165] Memory required for data: 400861216
I0907 18:13:21.616731  2825 layer_factory.hpp:77] Creating layer relu4_2
I0907 18:13:21.616740  2825 net.cpp:100] Creating Layer relu4_2
I0907 18:13:21.616744  2825 net.cpp:434] relu4_2 <- conv4_2
I0907 18:13:21.616749  2825 net.cpp:395] relu4_2 -> conv4_2 (in-place)
I0907 18:13:21.616755  2825 net.cpp:150] Setting up relu4_2
I0907 18:13:21.616761  2825 net.cpp:157] Top shape: 2 512 38 38 (1478656)
I0907 18:13:21.616763  2825 net.cpp:165] Memory required for data: 406775840
I0907 18:13:21.616765  2825 layer_factory.hpp:77] Creating layer conv4_3
I0907 18:13:21.616775  2825 net.cpp:100] Creating Layer conv4_3
I0907 18:13:21.616778  2825 net.cpp:434] conv4_3 <- conv4_2
I0907 18:13:21.616783  2825 net.cpp:408] conv4_3 -> conv4_3
I0907 18:13:21.629279  2825 net.cpp:150] Setting up conv4_3
I0907 18:13:21.629302  2825 net.cpp:157] Top shape: 2 512 38 38 (1478656)
I0907 18:13:21.629304  2825 net.cpp:165] Memory required for data: 412690464
I0907 18:13:21.629310  2825 layer_factory.hpp:77] Creating layer relu4_3
I0907 18:13:21.629319  2825 net.cpp:100] Creating Layer relu4_3
I0907 18:13:21.629323  2825 net.cpp:434] relu4_3 <- conv4_3
I0907 18:13:21.629329  2825 net.cpp:395] relu4_3 -> conv4_3 (in-place)
I0907 18:13:21.629336  2825 net.cpp:150] Setting up relu4_3
I0907 18:13:21.629339  2825 net.cpp:157] Top shape: 2 512 38 38 (1478656)
I0907 18:13:21.629344  2825 net.cpp:165] Memory required for data: 418605088
I0907 18:13:21.629359  2825 layer_factory.hpp:77] Creating layer conv4_3_relu4_3_0_split
I0907 18:13:21.629365  2825 net.cpp:100] Creating Layer conv4_3_relu4_3_0_split
I0907 18:13:21.629369  2825 net.cpp:434] conv4_3_relu4_3_0_split <- conv4_3
I0907 18:13:21.629372  2825 net.cpp:408] conv4_3_relu4_3_0_split -> conv4_3_relu4_3_0_split_0
I0907 18:13:21.629377  2825 net.cpp:408] conv4_3_relu4_3_0_split -> conv4_3_relu4_3_0_split_1
I0907 18:13:21.629403  2825 net.cpp:150] Setting up conv4_3_relu4_3_0_split
I0907 18:13:21.629411  2825 net.cpp:157] Top shape: 2 512 38 38 (1478656)
I0907 18:13:21.629416  2825 net.cpp:157] Top shape: 2 512 38 38 (1478656)
I0907 18:13:21.629420  2825 net.cpp:165] Memory required for data: 430434336
I0907 18:13:21.629422  2825 layer_factory.hpp:77] Creating layer pool4
I0907 18:13:21.629432  2825 net.cpp:100] Creating Layer pool4
I0907 18:13:21.629438  2825 net.cpp:434] pool4 <- conv4_3_relu4_3_0_split_0
I0907 18:13:21.629444  2825 net.cpp:408] pool4 -> pool4
I0907 18:13:21.629478  2825 net.cpp:150] Setting up pool4
I0907 18:13:21.629485  2825 net.cpp:157] Top shape: 2 512 19 19 (369664)
I0907 18:13:21.629489  2825 net.cpp:165] Memory required for data: 431912992
I0907 18:13:21.629493  2825 layer_factory.hpp:77] Creating layer conv5_1
I0907 18:13:21.629505  2825 net.cpp:100] Creating Layer conv5_1
I0907 18:13:21.629509  2825 net.cpp:434] conv5_1 <- pool4
I0907 18:13:21.629518  2825 net.cpp:408] conv5_1 -> conv5_1
I0907 18:13:21.642172  2825 net.cpp:150] Setting up conv5_1
I0907 18:13:21.642204  2825 net.cpp:157] Top shape: 2 512 19 19 (369664)
I0907 18:13:21.642208  2825 net.cpp:165] Memory required for data: 433391648
I0907 18:13:21.642220  2825 layer_factory.hpp:77] Creating layer relu5_1
I0907 18:13:21.642242  2825 net.cpp:100] Creating Layer relu5_1
I0907 18:13:21.642248  2825 net.cpp:434] relu5_1 <- conv5_1
I0907 18:13:21.642259  2825 net.cpp:395] relu5_1 -> conv5_1 (in-place)
I0907 18:13:21.642274  2825 net.cpp:150] Setting up relu5_1
I0907 18:13:21.642282  2825 net.cpp:157] Top shape: 2 512 19 19 (369664)
I0907 18:13:21.642285  2825 net.cpp:165] Memory required for data: 434870304
I0907 18:13:21.642289  2825 layer_factory.hpp:77] Creating layer conv5_2
I0907 18:13:21.642302  2825 net.cpp:100] Creating Layer conv5_2
I0907 18:13:21.642307  2825 net.cpp:434] conv5_2 <- conv5_1
I0907 18:13:21.642315  2825 net.cpp:408] conv5_2 -> conv5_2
I0907 18:13:21.654801  2825 net.cpp:150] Setting up conv5_2
I0907 18:13:21.654829  2825 net.cpp:157] Top shape: 2 512 19 19 (369664)
I0907 18:13:21.654832  2825 net.cpp:165] Memory required for data: 436348960
I0907 18:13:21.654853  2825 layer_factory.hpp:77] Creating layer relu5_2
I0907 18:13:21.654865  2825 net.cpp:100] Creating Layer relu5_2
I0907 18:13:21.654870  2825 net.cpp:434] relu5_2 <- conv5_2
I0907 18:13:21.654881  2825 net.cpp:395] relu5_2 -> conv5_2 (in-place)
I0907 18:13:21.654893  2825 net.cpp:150] Setting up relu5_2
I0907 18:13:21.654901  2825 net.cpp:157] Top shape: 2 512 19 19 (369664)
I0907 18:13:21.654903  2825 net.cpp:165] Memory required for data: 437827616
I0907 18:13:21.654907  2825 layer_factory.hpp:77] Creating layer conv5_3
I0907 18:13:21.654922  2825 net.cpp:100] Creating Layer conv5_3
I0907 18:13:21.654925  2825 net.cpp:434] conv5_3 <- conv5_2
I0907 18:13:21.654933  2825 net.cpp:408] conv5_3 -> conv5_3
I0907 18:13:21.667496  2825 net.cpp:150] Setting up conv5_3
I0907 18:13:21.667524  2825 net.cpp:157] Top shape: 2 512 19 19 (369664)
I0907 18:13:21.667529  2825 net.cpp:165] Memory required for data: 439306272
I0907 18:13:21.667539  2825 layer_factory.hpp:77] Creating layer relu5_3
I0907 18:13:21.667567  2825 net.cpp:100] Creating Layer relu5_3
I0907 18:13:21.667575  2825 net.cpp:434] relu5_3 <- conv5_3
I0907 18:13:21.667584  2825 net.cpp:395] relu5_3 -> conv5_3 (in-place)
I0907 18:13:21.667598  2825 net.cpp:150] Setting up relu5_3
I0907 18:13:21.667604  2825 net.cpp:157] Top shape: 2 512 19 19 (369664)
I0907 18:13:21.667609  2825 net.cpp:165] Memory required for data: 440784928
I0907 18:13:21.667632  2825 layer_factory.hpp:77] Creating layer pool5
I0907 18:13:21.667650  2825 net.cpp:100] Creating Layer pool5
I0907 18:13:21.667665  2825 net.cpp:434] pool5 <- conv5_3
I0907 18:13:21.667672  2825 net.cpp:408] pool5 -> pool5
I0907 18:13:21.667732  2825 net.cpp:150] Setting up pool5
I0907 18:13:21.667740  2825 net.cpp:157] Top shape: 2 512 19 19 (369664)
I0907 18:13:21.667744  2825 net.cpp:165] Memory required for data: 442263584
I0907 18:13:21.667749  2825 layer_factory.hpp:77] Creating layer fc6
I0907 18:13:21.667765  2825 net.cpp:100] Creating Layer fc6
I0907 18:13:21.667773  2825 net.cpp:434] fc6 <- pool5
I0907 18:13:21.667783  2825 net.cpp:408] fc6 -> fc6
I0907 18:13:21.692137  2825 net.cpp:150] Setting up fc6
I0907 18:13:21.692167  2825 net.cpp:157] Top shape: 2 1024 19 19 (739328)
I0907 18:13:21.692170  2825 net.cpp:165] Memory required for data: 445220896
I0907 18:13:21.692180  2825 layer_factory.hpp:77] Creating layer relu6
I0907 18:13:21.692191  2825 net.cpp:100] Creating Layer relu6
I0907 18:13:21.692198  2825 net.cpp:434] relu6 <- fc6
I0907 18:13:21.692215  2825 net.cpp:395] relu6 -> fc6 (in-place)
I0907 18:13:21.692229  2825 net.cpp:150] Setting up relu6
I0907 18:13:21.692235  2825 net.cpp:157] Top shape: 2 1024 19 19 (739328)
I0907 18:13:21.692239  2825 net.cpp:165] Memory required for data: 448178208
I0907 18:13:21.692243  2825 layer_factory.hpp:77] Creating layer fc7
I0907 18:13:21.692257  2825 net.cpp:100] Creating Layer fc7
I0907 18:13:21.692261  2825 net.cpp:434] fc7 <- fc6
I0907 18:13:21.692270  2825 net.cpp:408] fc7 -> fc7
I0907 18:13:21.698236  2825 net.cpp:150] Setting up fc7
I0907 18:13:21.698264  2825 net.cpp:157] Top shape: 2 1024 19 19 (739328)
I0907 18:13:21.698268  2825 net.cpp:165] Memory required for data: 451135520
I0907 18:13:21.698287  2825 layer_factory.hpp:77] Creating layer relu7
I0907 18:13:21.698298  2825 net.cpp:100] Creating Layer relu7
I0907 18:13:21.698305  2825 net.cpp:434] relu7 <- fc7
I0907 18:13:21.698314  2825 net.cpp:395] relu7 -> fc7 (in-place)
I0907 18:13:21.698326  2825 net.cpp:150] Setting up relu7
I0907 18:13:21.698334  2825 net.cpp:157] Top shape: 2 1024 19 19 (739328)
I0907 18:13:21.698338  2825 net.cpp:165] Memory required for data: 454092832
I0907 18:13:21.698341  2825 layer_factory.hpp:77] Creating layer fc7_relu7_0_split
I0907 18:13:21.698348  2825 net.cpp:100] Creating Layer fc7_relu7_0_split
I0907 18:13:21.698355  2825 net.cpp:434] fc7_relu7_0_split <- fc7
I0907 18:13:21.698364  2825 net.cpp:408] fc7_relu7_0_split -> fc7_relu7_0_split_0
I0907 18:13:21.698375  2825 net.cpp:408] fc7_relu7_0_split -> fc7_relu7_0_split_1
I0907 18:13:21.698390  2825 net.cpp:408] fc7_relu7_0_split -> fc7_relu7_0_split_2
I0907 18:13:21.698400  2825 net.cpp:408] fc7_relu7_0_split -> fc7_relu7_0_split_3
I0907 18:13:21.698456  2825 net.cpp:150] Setting up fc7_relu7_0_split
I0907 18:13:21.698462  2825 net.cpp:157] Top shape: 2 1024 19 19 (739328)
I0907 18:13:21.698468  2825 net.cpp:157] Top shape: 2 1024 19 19 (739328)
I0907 18:13:21.698474  2825 net.cpp:157] Top shape: 2 1024 19 19 (739328)
I0907 18:13:21.698479  2825 net.cpp:157] Top shape: 2 1024 19 19 (739328)
I0907 18:13:21.698484  2825 net.cpp:165] Memory required for data: 465922080
I0907 18:13:21.698488  2825 layer_factory.hpp:77] Creating layer conv6_1
I0907 18:13:21.698500  2825 net.cpp:100] Creating Layer conv6_1
I0907 18:13:21.698505  2825 net.cpp:434] conv6_1 <- fc7_relu7_0_split_0
I0907 18:13:21.698514  2825 net.cpp:408] conv6_1 -> conv6_1
I0907 18:13:21.700254  2825 net.cpp:150] Setting up conv6_1
I0907 18:13:21.700266  2825 net.cpp:157] Top shape: 2 256 19 19 (184832)
I0907 18:13:21.700270  2825 net.cpp:165] Memory required for data: 466661408
I0907 18:13:21.700278  2825 layer_factory.hpp:77] Creating layer conv6_1_relu
I0907 18:13:21.700286  2825 net.cpp:100] Creating Layer conv6_1_relu
I0907 18:13:21.700292  2825 net.cpp:434] conv6_1_relu <- conv6_1
I0907 18:13:21.700299  2825 net.cpp:395] conv6_1_relu -> conv6_1 (in-place)
I0907 18:13:21.700307  2825 net.cpp:150] Setting up conv6_1_relu
I0907 18:13:21.700314  2825 net.cpp:157] Top shape: 2 256 19 19 (184832)
I0907 18:13:21.700328  2825 net.cpp:165] Memory required for data: 467400736
I0907 18:13:21.700333  2825 layer_factory.hpp:77] Creating layer conv6_2
I0907 18:13:21.700345  2825 net.cpp:100] Creating Layer conv6_2
I0907 18:13:21.700350  2825 net.cpp:434] conv6_2 <- conv6_1
I0907 18:13:21.700358  2825 net.cpp:408] conv6_2 -> conv6_2
I0907 18:13:21.706753  2825 net.cpp:150] Setting up conv6_2
I0907 18:13:21.706778  2825 net.cpp:157] Top shape: 2 512 10 10 (102400)
I0907 18:13:21.706781  2825 net.cpp:165] Memory required for data: 467810336
I0907 18:13:21.706800  2825 layer_factory.hpp:77] Creating layer conv6_2_relu
I0907 18:13:21.706811  2825 net.cpp:100] Creating Layer conv6_2_relu
I0907 18:13:21.706818  2825 net.cpp:434] conv6_2_relu <- conv6_2
I0907 18:13:21.706827  2825 net.cpp:395] conv6_2_relu -> conv6_2 (in-place)
I0907 18:13:21.706840  2825 net.cpp:150] Setting up conv6_2_relu
I0907 18:13:21.706846  2825 net.cpp:157] Top shape: 2 512 10 10 (102400)
I0907 18:13:21.706851  2825 net.cpp:165] Memory required for data: 468219936
I0907 18:13:21.706854  2825 layer_factory.hpp:77] Creating layer conv6_2_conv6_2_relu_0_split
I0907 18:13:21.706861  2825 net.cpp:100] Creating Layer conv6_2_conv6_2_relu_0_split
I0907 18:13:21.706866  2825 net.cpp:434] conv6_2_conv6_2_relu_0_split <- conv6_2
I0907 18:13:21.706876  2825 net.cpp:408] conv6_2_conv6_2_relu_0_split -> conv6_2_conv6_2_relu_0_split_0
I0907 18:13:21.706887  2825 net.cpp:408] conv6_2_conv6_2_relu_0_split -> conv6_2_conv6_2_relu_0_split_1
I0907 18:13:21.706897  2825 net.cpp:408] conv6_2_conv6_2_relu_0_split -> conv6_2_conv6_2_relu_0_split_2
I0907 18:13:21.706905  2825 net.cpp:408] conv6_2_conv6_2_relu_0_split -> conv6_2_conv6_2_relu_0_split_3
I0907 18:13:21.706962  2825 net.cpp:150] Setting up conv6_2_conv6_2_relu_0_split
I0907 18:13:21.706969  2825 net.cpp:157] Top shape: 2 512 10 10 (102400)
I0907 18:13:21.706974  2825 net.cpp:157] Top shape: 2 512 10 10 (102400)
I0907 18:13:21.706979  2825 net.cpp:157] Top shape: 2 512 10 10 (102400)
I0907 18:13:21.706984  2825 net.cpp:157] Top shape: 2 512 10 10 (102400)
I0907 18:13:21.706990  2825 net.cpp:165] Memory required for data: 469858336
I0907 18:13:21.706993  2825 layer_factory.hpp:77] Creating layer conv7_1
I0907 18:13:21.707005  2825 net.cpp:100] Creating Layer conv7_1
I0907 18:13:21.707010  2825 net.cpp:434] conv7_1 <- conv6_2_conv6_2_relu_0_split_0
I0907 18:13:21.707020  2825 net.cpp:408] conv7_1 -> conv7_1
I0907 18:13:21.707491  2825 net.cpp:150] Setting up conv7_1
I0907 18:13:21.707500  2825 net.cpp:157] Top shape: 2 128 10 10 (25600)
I0907 18:13:21.707504  2825 net.cpp:165] Memory required for data: 469960736
I0907 18:13:21.707511  2825 layer_factory.hpp:77] Creating layer conv7_1_relu
I0907 18:13:21.707520  2825 net.cpp:100] Creating Layer conv7_1_relu
I0907 18:13:21.707525  2825 net.cpp:434] conv7_1_relu <- conv7_1
I0907 18:13:21.707532  2825 net.cpp:395] conv7_1_relu -> conv7_1 (in-place)
I0907 18:13:21.707540  2825 net.cpp:150] Setting up conv7_1_relu
I0907 18:13:21.707547  2825 net.cpp:157] Top shape: 2 128 10 10 (25600)
I0907 18:13:21.707551  2825 net.cpp:165] Memory required for data: 470063136
I0907 18:13:21.707554  2825 layer_factory.hpp:77] Creating layer conv7_2
I0907 18:13:21.707564  2825 net.cpp:100] Creating Layer conv7_2
I0907 18:13:21.707569  2825 net.cpp:434] conv7_2 <- conv7_1
I0907 18:13:21.707576  2825 net.cpp:408] conv7_2 -> conv7_2
I0907 18:13:21.709488  2825 net.cpp:150] Setting up conv7_2
I0907 18:13:21.709501  2825 net.cpp:157] Top shape: 2 256 5 5 (12800)
I0907 18:13:21.709503  2825 net.cpp:165] Memory required for data: 470114336
I0907 18:13:21.709511  2825 layer_factory.hpp:77] Creating layer conv7_2_relu
I0907 18:13:21.709522  2825 net.cpp:100] Creating Layer conv7_2_relu
I0907 18:13:21.709527  2825 net.cpp:434] conv7_2_relu <- conv7_2
I0907 18:13:21.709535  2825 net.cpp:395] conv7_2_relu -> conv7_2 (in-place)
I0907 18:13:21.709544  2825 net.cpp:150] Setting up conv7_2_relu
I0907 18:13:21.709550  2825 net.cpp:157] Top shape: 2 256 5 5 (12800)
I0907 18:13:21.709566  2825 net.cpp:165] Memory required for data: 470165536
I0907 18:13:21.709571  2825 layer_factory.hpp:77] Creating layer conv7_2_conv7_2_relu_0_split
I0907 18:13:21.709578  2825 net.cpp:100] Creating Layer conv7_2_conv7_2_relu_0_split
I0907 18:13:21.709583  2825 net.cpp:434] conv7_2_conv7_2_relu_0_split <- conv7_2
I0907 18:13:21.709591  2825 net.cpp:408] conv7_2_conv7_2_relu_0_split -> conv7_2_conv7_2_relu_0_split_0
I0907 18:13:21.709601  2825 net.cpp:408] conv7_2_conv7_2_relu_0_split -> conv7_2_conv7_2_relu_0_split_1
I0907 18:13:21.709610  2825 net.cpp:408] conv7_2_conv7_2_relu_0_split -> conv7_2_conv7_2_relu_0_split_2
I0907 18:13:21.709622  2825 net.cpp:408] conv7_2_conv7_2_relu_0_split -> conv7_2_conv7_2_relu_0_split_3
I0907 18:13:21.709676  2825 net.cpp:150] Setting up conv7_2_conv7_2_relu_0_split
I0907 18:13:21.709682  2825 net.cpp:157] Top shape: 2 256 5 5 (12800)
I0907 18:13:21.709687  2825 net.cpp:157] Top shape: 2 256 5 5 (12800)
I0907 18:13:21.709692  2825 net.cpp:157] Top shape: 2 256 5 5 (12800)
I0907 18:13:21.709698  2825 net.cpp:157] Top shape: 2 256 5 5 (12800)
I0907 18:13:21.709702  2825 net.cpp:165] Memory required for data: 470370336
I0907 18:13:21.709707  2825 layer_factory.hpp:77] Creating layer conv8_1
I0907 18:13:21.709719  2825 net.cpp:100] Creating Layer conv8_1
I0907 18:13:21.709723  2825 net.cpp:434] conv8_1 <- conv7_2_conv7_2_relu_0_split_0
I0907 18:13:21.709733  2825 net.cpp:408] conv8_1 -> conv8_1
I0907 18:13:21.710058  2825 net.cpp:150] Setting up conv8_1
I0907 18:13:21.710067  2825 net.cpp:157] Top shape: 2 128 5 5 (6400)
I0907 18:13:21.710072  2825 net.cpp:165] Memory required for data: 470395936
I0907 18:13:21.710078  2825 layer_factory.hpp:77] Creating layer conv8_1_relu
I0907 18:13:21.710085  2825 net.cpp:100] Creating Layer conv8_1_relu
I0907 18:13:21.710090  2825 net.cpp:434] conv8_1_relu <- conv8_1
I0907 18:13:21.710098  2825 net.cpp:395] conv8_1_relu -> conv8_1 (in-place)
I0907 18:13:21.710106  2825 net.cpp:150] Setting up conv8_1_relu
I0907 18:13:21.710113  2825 net.cpp:157] Top shape: 2 128 5 5 (6400)
I0907 18:13:21.710117  2825 net.cpp:165] Memory required for data: 470421536
I0907 18:13:21.710121  2825 layer_factory.hpp:77] Creating layer conv8_2
I0907 18:13:21.710131  2825 net.cpp:100] Creating Layer conv8_2
I0907 18:13:21.710136  2825 net.cpp:434] conv8_2 <- conv8_1
I0907 18:13:21.710144  2825 net.cpp:408] conv8_2 -> conv8_2
I0907 18:13:21.712009  2825 net.cpp:150] Setting up conv8_2
I0907 18:13:21.712021  2825 net.cpp:157] Top shape: 2 256 3 3 (4608)
I0907 18:13:21.712025  2825 net.cpp:165] Memory required for data: 470439968
I0907 18:13:21.712033  2825 layer_factory.hpp:77] Creating layer conv8_2_relu
I0907 18:13:21.712039  2825 net.cpp:100] Creating Layer conv8_2_relu
I0907 18:13:21.712046  2825 net.cpp:434] conv8_2_relu <- conv8_2
I0907 18:13:21.712052  2825 net.cpp:395] conv8_2_relu -> conv8_2 (in-place)
I0907 18:13:21.712059  2825 net.cpp:150] Setting up conv8_2_relu
I0907 18:13:21.712066  2825 net.cpp:157] Top shape: 2 256 3 3 (4608)
I0907 18:13:21.712070  2825 net.cpp:165] Memory required for data: 470458400
I0907 18:13:21.712074  2825 layer_factory.hpp:77] Creating layer conv8_2_conv8_2_relu_0_split
I0907 18:13:21.712082  2825 net.cpp:100] Creating Layer conv8_2_conv8_2_relu_0_split
I0907 18:13:21.712087  2825 net.cpp:434] conv8_2_conv8_2_relu_0_split <- conv8_2
I0907 18:13:21.712095  2825 net.cpp:408] conv8_2_conv8_2_relu_0_split -> conv8_2_conv8_2_relu_0_split_0
I0907 18:13:21.712105  2825 net.cpp:408] conv8_2_conv8_2_relu_0_split -> conv8_2_conv8_2_relu_0_split_1
I0907 18:13:21.712115  2825 net.cpp:408] conv8_2_conv8_2_relu_0_split -> conv8_2_conv8_2_relu_0_split_2
I0907 18:13:21.712123  2825 net.cpp:408] conv8_2_conv8_2_relu_0_split -> conv8_2_conv8_2_relu_0_split_3
I0907 18:13:21.712174  2825 net.cpp:150] Setting up conv8_2_conv8_2_relu_0_split
I0907 18:13:21.712182  2825 net.cpp:157] Top shape: 2 256 3 3 (4608)
I0907 18:13:21.712188  2825 net.cpp:157] Top shape: 2 256 3 3 (4608)
I0907 18:13:21.712193  2825 net.cpp:157] Top shape: 2 256 3 3 (4608)
I0907 18:13:21.712209  2825 net.cpp:157] Top shape: 2 256 3 3 (4608)
I0907 18:13:21.712215  2825 net.cpp:165] Memory required for data: 470532128
I0907 18:13:21.712219  2825 layer_factory.hpp:77] Creating layer conv9_1
I0907 18:13:21.712230  2825 net.cpp:100] Creating Layer conv9_1
I0907 18:13:21.712235  2825 net.cpp:434] conv9_1 <- conv8_2_conv8_2_relu_0_split_0
I0907 18:13:21.712244  2825 net.cpp:408] conv9_1 -> conv9_1
I0907 18:13:21.712551  2825 net.cpp:150] Setting up conv9_1
I0907 18:13:21.712559  2825 net.cpp:157] Top shape: 2 128 3 3 (2304)
I0907 18:13:21.712563  2825 net.cpp:165] Memory required for data: 470541344
I0907 18:13:21.712569  2825 layer_factory.hpp:77] Creating layer conv9_1_relu
I0907 18:13:21.712575  2825 net.cpp:100] Creating Layer conv9_1_relu
I0907 18:13:21.712581  2825 net.cpp:434] conv9_1_relu <- conv9_1
I0907 18:13:21.712589  2825 net.cpp:395] conv9_1_relu -> conv9_1 (in-place)
I0907 18:13:21.712597  2825 net.cpp:150] Setting up conv9_1_relu
I0907 18:13:21.712604  2825 net.cpp:157] Top shape: 2 128 3 3 (2304)
I0907 18:13:21.712608  2825 net.cpp:165] Memory required for data: 470550560
I0907 18:13:21.712612  2825 layer_factory.hpp:77] Creating layer conv9_2
I0907 18:13:21.712622  2825 net.cpp:100] Creating Layer conv9_2
I0907 18:13:21.712626  2825 net.cpp:434] conv9_2 <- conv9_1
I0907 18:13:21.712633  2825 net.cpp:408] conv9_2 -> conv9_2
I0907 18:13:21.714475  2825 net.cpp:150] Setting up conv9_2
I0907 18:13:21.714488  2825 net.cpp:157] Top shape: 2 256 1 1 (512)
I0907 18:13:21.714491  2825 net.cpp:165] Memory required for data: 470552608
I0907 18:13:21.714498  2825 layer_factory.hpp:77] Creating layer conv9_2_relu
I0907 18:13:21.714505  2825 net.cpp:100] Creating Layer conv9_2_relu
I0907 18:13:21.714511  2825 net.cpp:434] conv9_2_relu <- conv9_2
I0907 18:13:21.714519  2825 net.cpp:395] conv9_2_relu -> conv9_2 (in-place)
I0907 18:13:21.714527  2825 net.cpp:150] Setting up conv9_2_relu
I0907 18:13:21.714534  2825 net.cpp:157] Top shape: 2 256 1 1 (512)
I0907 18:13:21.714539  2825 net.cpp:165] Memory required for data: 470554656
I0907 18:13:21.714542  2825 layer_factory.hpp:77] Creating layer conv9_2_conv9_2_relu_0_split
I0907 18:13:21.714548  2825 net.cpp:100] Creating Layer conv9_2_conv9_2_relu_0_split
I0907 18:13:21.714553  2825 net.cpp:434] conv9_2_conv9_2_relu_0_split <- conv9_2
I0907 18:13:21.714561  2825 net.cpp:408] conv9_2_conv9_2_relu_0_split -> conv9_2_conv9_2_relu_0_split_0
I0907 18:13:21.714571  2825 net.cpp:408] conv9_2_conv9_2_relu_0_split -> conv9_2_conv9_2_relu_0_split_1
I0907 18:13:21.714581  2825 net.cpp:408] conv9_2_conv9_2_relu_0_split -> conv9_2_conv9_2_relu_0_split_2
I0907 18:13:21.714623  2825 net.cpp:150] Setting up conv9_2_conv9_2_relu_0_split
I0907 18:13:21.714630  2825 net.cpp:157] Top shape: 2 256 1 1 (512)
I0907 18:13:21.714634  2825 net.cpp:157] Top shape: 2 256 1 1 (512)
I0907 18:13:21.714639  2825 net.cpp:157] Top shape: 2 256 1 1 (512)
I0907 18:13:21.714643  2825 net.cpp:165] Memory required for data: 470560800
I0907 18:13:21.714646  2825 layer_factory.hpp:77] Creating layer conv4_3_norm
I0907 18:13:21.714656  2825 net.cpp:100] Creating Layer conv4_3_norm
I0907 18:13:21.714661  2825 net.cpp:434] conv4_3_norm <- conv4_3_relu4_3_0_split_1
I0907 18:13:21.714668  2825 net.cpp:408] conv4_3_norm -> conv4_3_norm
I0907 18:13:21.714784  2825 net.cpp:150] Setting up conv4_3_norm
I0907 18:13:21.714792  2825 net.cpp:157] Top shape: 2 512 38 38 (1478656)
I0907 18:13:21.714795  2825 net.cpp:165] Memory required for data: 476475424
I0907 18:13:21.714802  2825 layer_factory.hpp:77] Creating layer conv4_3_norm_conv4_3_norm_0_split
I0907 18:13:21.714807  2825 net.cpp:100] Creating Layer conv4_3_norm_conv4_3_norm_0_split
I0907 18:13:21.714812  2825 net.cpp:434] conv4_3_norm_conv4_3_norm_0_split <- conv4_3_norm
I0907 18:13:21.714819  2825 net.cpp:408] conv4_3_norm_conv4_3_norm_0_split -> conv4_3_norm_conv4_3_norm_0_split_0
I0907 18:13:21.714830  2825 net.cpp:408] conv4_3_norm_conv4_3_norm_0_split -> conv4_3_norm_conv4_3_norm_0_split_1
I0907 18:13:21.714839  2825 net.cpp:408] conv4_3_norm_conv4_3_norm_0_split -> conv4_3_norm_conv4_3_norm_0_split_2
I0907 18:13:21.714886  2825 net.cpp:150] Setting up conv4_3_norm_conv4_3_norm_0_split
I0907 18:13:21.714895  2825 net.cpp:157] Top shape: 2 512 38 38 (1478656)
I0907 18:13:21.714900  2825 net.cpp:157] Top shape: 2 512 38 38 (1478656)
I0907 18:13:21.714905  2825 net.cpp:157] Top shape: 2 512 38 38 (1478656)
I0907 18:13:21.714908  2825 net.cpp:165] Memory required for data: 494219296
I0907 18:13:21.714912  2825 layer_factory.hpp:77] Creating layer conv4_3_norm_mbox_loc
I0907 18:13:21.714926  2825 net.cpp:100] Creating Layer conv4_3_norm_mbox_loc
I0907 18:13:21.714929  2825 net.cpp:434] conv4_3_norm_mbox_loc <- conv4_3_norm_conv4_3_norm_0_split_0
I0907 18:13:21.714938  2825 net.cpp:408] conv4_3_norm_mbox_loc -> conv4_3_norm_mbox_loc
I0907 18:13:21.715438  2825 net.cpp:150] Setting up conv4_3_norm_mbox_loc
I0907 18:13:21.715447  2825 net.cpp:157] Top shape: 2 16 38 38 (46208)
I0907 18:13:21.715451  2825 net.cpp:165] Memory required for data: 494404128
I0907 18:13:21.715457  2825 layer_factory.hpp:77] Creating layer conv4_3_norm_mbox_loc_perm
I0907 18:13:21.715468  2825 net.cpp:100] Creating Layer conv4_3_norm_mbox_loc_perm
I0907 18:13:21.715473  2825 net.cpp:434] conv4_3_norm_mbox_loc_perm <- conv4_3_norm_mbox_loc
I0907 18:13:21.715481  2825 net.cpp:408] conv4_3_norm_mbox_loc_perm -> conv4_3_norm_mbox_loc_perm
I0907 18:13:21.715557  2825 net.cpp:150] Setting up conv4_3_norm_mbox_loc_perm
I0907 18:13:21.715566  2825 net.cpp:157] Top shape: 2 38 38 16 (46208)
I0907 18:13:21.715569  2825 net.cpp:165] Memory required for data: 494588960
I0907 18:13:21.715574  2825 layer_factory.hpp:77] Creating layer conv4_3_norm_mbox_loc_flat
I0907 18:13:21.715585  2825 net.cpp:100] Creating Layer conv4_3_norm_mbox_loc_flat
I0907 18:13:21.715590  2825 net.cpp:434] conv4_3_norm_mbox_loc_flat <- conv4_3_norm_mbox_loc_perm
I0907 18:13:21.715598  2825 net.cpp:408] conv4_3_norm_mbox_loc_flat -> conv4_3_norm_mbox_loc_flat
I0907 18:13:21.715632  2825 net.cpp:150] Setting up conv4_3_norm_mbox_loc_flat
I0907 18:13:21.715639  2825 net.cpp:157] Top shape: 2 23104 (46208)
I0907 18:13:21.715643  2825 net.cpp:165] Memory required for data: 494773792
I0907 18:13:21.715646  2825 layer_factory.hpp:77] Creating layer conv4_3_norm_mbox_conf
I0907 18:13:21.715663  2825 net.cpp:100] Creating Layer conv4_3_norm_mbox_conf
I0907 18:13:21.715668  2825 net.cpp:434] conv4_3_norm_mbox_conf <- conv4_3_norm_conv4_3_norm_0_split_1
I0907 18:13:21.715675  2825 net.cpp:408] conv4_3_norm_mbox_conf -> conv4_3_norm_mbox_conf
I0907 18:13:21.717970  2825 net.cpp:150] Setting up conv4_3_norm_mbox_conf
I0907 18:13:21.717985  2825 net.cpp:157] Top shape: 2 84 38 38 (242592)
I0907 18:13:21.717989  2825 net.cpp:165] Memory required for data: 495744160
I0907 18:13:21.717998  2825 layer_factory.hpp:77] Creating layer conv4_3_norm_mbox_conf_perm
I0907 18:13:21.718008  2825 net.cpp:100] Creating Layer conv4_3_norm_mbox_conf_perm
I0907 18:13:21.718014  2825 net.cpp:434] conv4_3_norm_mbox_conf_perm <- conv4_3_norm_mbox_conf
I0907 18:13:21.718022  2825 net.cpp:408] conv4_3_norm_mbox_conf_perm -> conv4_3_norm_mbox_conf_perm
I0907 18:13:21.718101  2825 net.cpp:150] Setting up conv4_3_norm_mbox_conf_perm
I0907 18:13:21.718108  2825 net.cpp:157] Top shape: 2 38 38 84 (242592)
I0907 18:13:21.718112  2825 net.cpp:165] Memory required for data: 496714528
I0907 18:13:21.718116  2825 layer_factory.hpp:77] Creating layer conv4_3_norm_mbox_conf_flat
I0907 18:13:21.718123  2825 net.cpp:100] Creating Layer conv4_3_norm_mbox_conf_flat
I0907 18:13:21.718128  2825 net.cpp:434] conv4_3_norm_mbox_conf_flat <- conv4_3_norm_mbox_conf_perm
I0907 18:13:21.718137  2825 net.cpp:408] conv4_3_norm_mbox_conf_flat -> conv4_3_norm_mbox_conf_flat
I0907 18:13:21.718160  2825 net.cpp:150] Setting up conv4_3_norm_mbox_conf_flat
I0907 18:13:21.718168  2825 net.cpp:157] Top shape: 2 121296 (242592)
I0907 18:13:21.718173  2825 net.cpp:165] Memory required for data: 497684896
I0907 18:13:21.718178  2825 layer_factory.hpp:77] Creating layer conv4_3_norm_mbox_priorbox
I0907 18:13:21.718197  2825 net.cpp:100] Creating Layer conv4_3_norm_mbox_priorbox
I0907 18:13:21.718202  2825 net.cpp:434] conv4_3_norm_mbox_priorbox <- conv4_3_norm_conv4_3_norm_0_split_2
I0907 18:13:21.718210  2825 net.cpp:434] conv4_3_norm_mbox_priorbox <- data_data_0_split_1
I0907 18:13:21.718220  2825 net.cpp:408] conv4_3_norm_mbox_priorbox -> conv4_3_norm_mbox_priorbox
I0907 18:13:21.718250  2825 net.cpp:150] Setting up conv4_3_norm_mbox_priorbox
I0907 18:13:21.718256  2825 net.cpp:157] Top shape: 1 2 23104 (46208)
I0907 18:13:21.718260  2825 net.cpp:165] Memory required for data: 497869728
I0907 18:13:21.718263  2825 layer_factory.hpp:77] Creating layer fc7_mbox_loc
I0907 18:13:21.718276  2825 net.cpp:100] Creating Layer fc7_mbox_loc
I0907 18:13:21.718281  2825 net.cpp:434] fc7_mbox_loc <- fc7_relu7_0_split_1
I0907 18:13:21.718288  2825 net.cpp:408] fc7_mbox_loc -> fc7_mbox_loc
I0907 18:13:21.719784  2825 net.cpp:150] Setting up fc7_mbox_loc
I0907 18:13:21.719795  2825 net.cpp:157] Top shape: 2 24 19 19 (17328)
I0907 18:13:21.719799  2825 net.cpp:165] Memory required for data: 497939040
I0907 18:13:21.719807  2825 layer_factory.hpp:77] Creating layer fc7_mbox_loc_perm
I0907 18:13:21.719816  2825 net.cpp:100] Creating Layer fc7_mbox_loc_perm
I0907 18:13:21.719822  2825 net.cpp:434] fc7_mbox_loc_perm <- fc7_mbox_loc
I0907 18:13:21.719830  2825 net.cpp:408] fc7_mbox_loc_perm -> fc7_mbox_loc_perm
I0907 18:13:21.719907  2825 net.cpp:150] Setting up fc7_mbox_loc_perm
I0907 18:13:21.719915  2825 net.cpp:157] Top shape: 2 19 19 24 (17328)
I0907 18:13:21.719918  2825 net.cpp:165] Memory required for data: 498008352
I0907 18:13:21.719923  2825 layer_factory.hpp:77] Creating layer fc7_mbox_loc_flat
I0907 18:13:21.719930  2825 net.cpp:100] Creating Layer fc7_mbox_loc_flat
I0907 18:13:21.719935  2825 net.cpp:434] fc7_mbox_loc_flat <- fc7_mbox_loc_perm
I0907 18:13:21.719944  2825 net.cpp:408] fc7_mbox_loc_flat -> fc7_mbox_loc_flat
I0907 18:13:21.719966  2825 net.cpp:150] Setting up fc7_mbox_loc_flat
I0907 18:13:21.719972  2825 net.cpp:157] Top shape: 2 8664 (17328)
I0907 18:13:21.719976  2825 net.cpp:165] Memory required for data: 498077664
I0907 18:13:21.719980  2825 layer_factory.hpp:77] Creating layer fc7_mbox_conf
I0907 18:13:21.719991  2825 net.cpp:100] Creating Layer fc7_mbox_conf
I0907 18:13:21.719996  2825 net.cpp:434] fc7_mbox_conf <- fc7_relu7_0_split_2
I0907 18:13:21.720005  2825 net.cpp:408] fc7_mbox_conf -> fc7_mbox_conf
I0907 18:13:21.726367  2825 net.cpp:150] Setting up fc7_mbox_conf
I0907 18:13:21.726398  2825 net.cpp:157] Top shape: 2 126 19 19 (90972)
I0907 18:13:21.726402  2825 net.cpp:165] Memory required for data: 498441552
I0907 18:13:21.726413  2825 layer_factory.hpp:77] Creating layer fc7_mbox_conf_perm
I0907 18:13:21.726428  2825 net.cpp:100] Creating Layer fc7_mbox_conf_perm
I0907 18:13:21.726434  2825 net.cpp:434] fc7_mbox_conf_perm <- fc7_mbox_conf
I0907 18:13:21.726444  2825 net.cpp:408] fc7_mbox_conf_perm -> fc7_mbox_conf_perm
I0907 18:13:21.726526  2825 net.cpp:150] Setting up fc7_mbox_conf_perm
I0907 18:13:21.726533  2825 net.cpp:157] Top shape: 2 19 19 126 (90972)
I0907 18:13:21.726537  2825 net.cpp:165] Memory required for data: 498805440
I0907 18:13:21.726541  2825 layer_factory.hpp:77] Creating layer fc7_mbox_conf_flat
I0907 18:13:21.726550  2825 net.cpp:100] Creating Layer fc7_mbox_conf_flat
I0907 18:13:21.726555  2825 net.cpp:434] fc7_mbox_conf_flat <- fc7_mbox_conf_perm
I0907 18:13:21.726562  2825 net.cpp:408] fc7_mbox_conf_flat -> fc7_mbox_conf_flat
I0907 18:13:21.726586  2825 net.cpp:150] Setting up fc7_mbox_conf_flat
I0907 18:13:21.726593  2825 net.cpp:157] Top shape: 2 45486 (90972)
I0907 18:13:21.726596  2825 net.cpp:165] Memory required for data: 499169328
I0907 18:13:21.726599  2825 layer_factory.hpp:77] Creating layer fc7_mbox_priorbox
I0907 18:13:21.726610  2825 net.cpp:100] Creating Layer fc7_mbox_priorbox
I0907 18:13:21.726615  2825 net.cpp:434] fc7_mbox_priorbox <- fc7_relu7_0_split_3
I0907 18:13:21.726622  2825 net.cpp:434] fc7_mbox_priorbox <- data_data_0_split_2
I0907 18:13:21.726642  2825 net.cpp:408] fc7_mbox_priorbox -> fc7_mbox_priorbox
I0907 18:13:21.726670  2825 net.cpp:150] Setting up fc7_mbox_priorbox
I0907 18:13:21.726676  2825 net.cpp:157] Top shape: 1 2 8664 (17328)
I0907 18:13:21.726680  2825 net.cpp:165] Memory required for data: 499238640
I0907 18:13:21.726685  2825 layer_factory.hpp:77] Creating layer conv6_2_mbox_loc
I0907 18:13:21.726697  2825 net.cpp:100] Creating Layer conv6_2_mbox_loc
I0907 18:13:21.726702  2825 net.cpp:434] conv6_2_mbox_loc <- conv6_2_conv6_2_relu_0_split_1
I0907 18:13:21.726711  2825 net.cpp:408] conv6_2_mbox_loc -> conv6_2_mbox_loc
I0907 18:13:21.727929  2825 net.cpp:150] Setting up conv6_2_mbox_loc
I0907 18:13:21.727944  2825 net.cpp:157] Top shape: 2 24 10 10 (4800)
I0907 18:13:21.727948  2825 net.cpp:165] Memory required for data: 499257840
I0907 18:13:21.727957  2825 layer_factory.hpp:77] Creating layer conv6_2_mbox_loc_perm
I0907 18:13:21.727967  2825 net.cpp:100] Creating Layer conv6_2_mbox_loc_perm
I0907 18:13:21.727973  2825 net.cpp:434] conv6_2_mbox_loc_perm <- conv6_2_mbox_loc
I0907 18:13:21.727982  2825 net.cpp:408] conv6_2_mbox_loc_perm -> conv6_2_mbox_loc_perm
I0907 18:13:21.728061  2825 net.cpp:150] Setting up conv6_2_mbox_loc_perm
I0907 18:13:21.728068  2825 net.cpp:157] Top shape: 2 10 10 24 (4800)
I0907 18:13:21.728072  2825 net.cpp:165] Memory required for data: 499277040
I0907 18:13:21.728076  2825 layer_factory.hpp:77] Creating layer conv6_2_mbox_loc_flat
I0907 18:13:21.728085  2825 net.cpp:100] Creating Layer conv6_2_mbox_loc_flat
I0907 18:13:21.728091  2825 net.cpp:434] conv6_2_mbox_loc_flat <- conv6_2_mbox_loc_perm
I0907 18:13:21.728097  2825 net.cpp:408] conv6_2_mbox_loc_flat -> conv6_2_mbox_loc_flat
I0907 18:13:21.728121  2825 net.cpp:150] Setting up conv6_2_mbox_loc_flat
I0907 18:13:21.728127  2825 net.cpp:157] Top shape: 2 2400 (4800)
I0907 18:13:21.728129  2825 net.cpp:165] Memory required for data: 499296240
I0907 18:13:21.728133  2825 layer_factory.hpp:77] Creating layer conv6_2_mbox_conf
I0907 18:13:21.728149  2825 net.cpp:100] Creating Layer conv6_2_mbox_conf
I0907 18:13:21.728154  2825 net.cpp:434] conv6_2_mbox_conf <- conv6_2_conv6_2_relu_0_split_2
I0907 18:13:21.728163  2825 net.cpp:408] conv6_2_mbox_conf -> conv6_2_mbox_conf
I0907 18:13:21.731473  2825 net.cpp:150] Setting up conv6_2_mbox_conf
I0907 18:13:21.731494  2825 net.cpp:157] Top shape: 2 126 10 10 (25200)
I0907 18:13:21.731498  2825 net.cpp:165] Memory required for data: 499397040
I0907 18:13:21.731508  2825 layer_factory.hpp:77] Creating layer conv6_2_mbox_conf_perm
I0907 18:13:21.731529  2825 net.cpp:100] Creating Layer conv6_2_mbox_conf_perm
I0907 18:13:21.731537  2825 net.cpp:434] conv6_2_mbox_conf_perm <- conv6_2_mbox_conf
I0907 18:13:21.731547  2825 net.cpp:408] conv6_2_mbox_conf_perm -> conv6_2_mbox_conf_perm
I0907 18:13:21.731640  2825 net.cpp:150] Setting up conv6_2_mbox_conf_perm
I0907 18:13:21.731650  2825 net.cpp:157] Top shape: 2 10 10 126 (25200)
I0907 18:13:21.731665  2825 net.cpp:165] Memory required for data: 499497840
I0907 18:13:21.731669  2825 layer_factory.hpp:77] Creating layer conv6_2_mbox_conf_flat
I0907 18:13:21.731676  2825 net.cpp:100] Creating Layer conv6_2_mbox_conf_flat
I0907 18:13:21.731683  2825 net.cpp:434] conv6_2_mbox_conf_flat <- conv6_2_mbox_conf_perm
I0907 18:13:21.731690  2825 net.cpp:408] conv6_2_mbox_conf_flat -> conv6_2_mbox_conf_flat
I0907 18:13:21.731714  2825 net.cpp:150] Setting up conv6_2_mbox_conf_flat
I0907 18:13:21.731731  2825 net.cpp:157] Top shape: 2 12600 (25200)
I0907 18:13:21.731734  2825 net.cpp:165] Memory required for data: 499598640
I0907 18:13:21.731739  2825 layer_factory.hpp:77] Creating layer conv6_2_mbox_priorbox
I0907 18:13:21.731758  2825 net.cpp:100] Creating Layer conv6_2_mbox_priorbox
I0907 18:13:21.731762  2825 net.cpp:434] conv6_2_mbox_priorbox <- conv6_2_conv6_2_relu_0_split_3
I0907 18:13:21.731770  2825 net.cpp:434] conv6_2_mbox_priorbox <- data_data_0_split_3
I0907 18:13:21.731778  2825 net.cpp:408] conv6_2_mbox_priorbox -> conv6_2_mbox_priorbox
I0907 18:13:21.731806  2825 net.cpp:150] Setting up conv6_2_mbox_priorbox
I0907 18:13:21.731832  2825 net.cpp:157] Top shape: 1 2 2400 (4800)
I0907 18:13:21.731835  2825 net.cpp:165] Memory required for data: 499617840
I0907 18:13:21.731848  2825 layer_factory.hpp:77] Creating layer conv7_2_mbox_loc
I0907 18:13:21.731861  2825 net.cpp:100] Creating Layer conv7_2_mbox_loc
I0907 18:13:21.731866  2825 net.cpp:434] conv7_2_mbox_loc <- conv7_2_conv7_2_relu_0_split_1
I0907 18:13:21.731873  2825 net.cpp:408] conv7_2_mbox_loc -> conv7_2_mbox_loc
I0907 18:13:21.732693  2825 net.cpp:150] Setting up conv7_2_mbox_loc
I0907 18:13:21.732703  2825 net.cpp:157] Top shape: 2 24 5 5 (1200)
I0907 18:13:21.732707  2825 net.cpp:165] Memory required for data: 499622640
I0907 18:13:21.732724  2825 layer_factory.hpp:77] Creating layer conv7_2_mbox_loc_perm
I0907 18:13:21.732734  2825 net.cpp:100] Creating Layer conv7_2_mbox_loc_perm
I0907 18:13:21.732739  2825 net.cpp:434] conv7_2_mbox_loc_perm <- conv7_2_mbox_loc
I0907 18:13:21.732748  2825 net.cpp:408] conv7_2_mbox_loc_perm -> conv7_2_mbox_loc_perm
I0907 18:13:21.732826  2825 net.cpp:150] Setting up conv7_2_mbox_loc_perm
I0907 18:13:21.732833  2825 net.cpp:157] Top shape: 2 5 5 24 (1200)
I0907 18:13:21.732837  2825 net.cpp:165] Memory required for data: 499627440
I0907 18:13:21.732841  2825 layer_factory.hpp:77] Creating layer conv7_2_mbox_loc_flat
I0907 18:13:21.732849  2825 net.cpp:100] Creating Layer conv7_2_mbox_loc_flat
I0907 18:13:21.732854  2825 net.cpp:434] conv7_2_mbox_loc_flat <- conv7_2_mbox_loc_perm
I0907 18:13:21.732862  2825 net.cpp:408] conv7_2_mbox_loc_flat -> conv7_2_mbox_loc_flat
I0907 18:13:21.732885  2825 net.cpp:150] Setting up conv7_2_mbox_loc_flat
I0907 18:13:21.732892  2825 net.cpp:157] Top shape: 2 600 (1200)
I0907 18:13:21.732895  2825 net.cpp:165] Memory required for data: 499632240
I0907 18:13:21.732899  2825 layer_factory.hpp:77] Creating layer conv7_2_mbox_conf
I0907 18:13:21.732913  2825 net.cpp:100] Creating Layer conv7_2_mbox_conf
I0907 18:13:21.732918  2825 net.cpp:434] conv7_2_mbox_conf <- conv7_2_conv7_2_relu_0_split_2
I0907 18:13:21.732928  2825 net.cpp:408] conv7_2_mbox_conf -> conv7_2_mbox_conf
I0907 18:13:21.734731  2825 net.cpp:150] Setting up conv7_2_mbox_conf
I0907 18:13:21.734742  2825 net.cpp:157] Top shape: 2 126 5 5 (6300)
I0907 18:13:21.734746  2825 net.cpp:165] Memory required for data: 499657440
I0907 18:13:21.734755  2825 layer_factory.hpp:77] Creating layer conv7_2_mbox_conf_perm
I0907 18:13:21.734762  2825 net.cpp:100] Creating Layer conv7_2_mbox_conf_perm
I0907 18:13:21.734768  2825 net.cpp:434] conv7_2_mbox_conf_perm <- conv7_2_mbox_conf
I0907 18:13:21.734776  2825 net.cpp:408] conv7_2_mbox_conf_perm -> conv7_2_mbox_conf_perm
I0907 18:13:21.734856  2825 net.cpp:150] Setting up conv7_2_mbox_conf_perm
I0907 18:13:21.734863  2825 net.cpp:157] Top shape: 2 5 5 126 (6300)
I0907 18:13:21.734868  2825 net.cpp:165] Memory required for data: 499682640
I0907 18:13:21.734870  2825 layer_factory.hpp:77] Creating layer conv7_2_mbox_conf_flat
I0907 18:13:21.734877  2825 net.cpp:100] Creating Layer conv7_2_mbox_conf_flat
I0907 18:13:21.734881  2825 net.cpp:434] conv7_2_mbox_conf_flat <- conv7_2_mbox_conf_perm
I0907 18:13:21.734889  2825 net.cpp:408] conv7_2_mbox_conf_flat -> conv7_2_mbox_conf_flat
I0907 18:13:21.734915  2825 net.cpp:150] Setting up conv7_2_mbox_conf_flat
I0907 18:13:21.734920  2825 net.cpp:157] Top shape: 2 3150 (6300)
I0907 18:13:21.734925  2825 net.cpp:165] Memory required for data: 499707840
I0907 18:13:21.734928  2825 layer_factory.hpp:77] Creating layer conv7_2_mbox_priorbox
I0907 18:13:21.734936  2825 net.cpp:100] Creating Layer conv7_2_mbox_priorbox
I0907 18:13:21.734941  2825 net.cpp:434] conv7_2_mbox_priorbox <- conv7_2_conv7_2_relu_0_split_3
I0907 18:13:21.734947  2825 net.cpp:434] conv7_2_mbox_priorbox <- data_data_0_split_4
I0907 18:13:21.734957  2825 net.cpp:408] conv7_2_mbox_priorbox -> conv7_2_mbox_priorbox
I0907 18:13:21.734983  2825 net.cpp:150] Setting up conv7_2_mbox_priorbox
I0907 18:13:21.734989  2825 net.cpp:157] Top shape: 1 2 600 (1200)
I0907 18:13:21.735002  2825 net.cpp:165] Memory required for data: 499712640
I0907 18:13:21.735007  2825 layer_factory.hpp:77] Creating layer conv8_2_mbox_loc
I0907 18:13:21.735019  2825 net.cpp:100] Creating Layer conv8_2_mbox_loc
I0907 18:13:21.735024  2825 net.cpp:434] conv8_2_mbox_loc <- conv8_2_conv8_2_relu_0_split_1
I0907 18:13:21.735033  2825 net.cpp:408] conv8_2_mbox_loc -> conv8_2_mbox_loc
I0907 18:13:21.735376  2825 net.cpp:150] Setting up conv8_2_mbox_loc
I0907 18:13:21.735385  2825 net.cpp:157] Top shape: 2 16 3 3 (288)
I0907 18:13:21.735388  2825 net.cpp:165] Memory required for data: 499713792
I0907 18:13:21.735404  2825 layer_factory.hpp:77] Creating layer conv8_2_mbox_loc_perm
I0907 18:13:21.735412  2825 net.cpp:100] Creating Layer conv8_2_mbox_loc_perm
I0907 18:13:21.735419  2825 net.cpp:434] conv8_2_mbox_loc_perm <- conv8_2_mbox_loc
I0907 18:13:21.735426  2825 net.cpp:408] conv8_2_mbox_loc_perm -> conv8_2_mbox_loc_perm
I0907 18:13:21.735507  2825 net.cpp:150] Setting up conv8_2_mbox_loc_perm
I0907 18:13:21.735514  2825 net.cpp:157] Top shape: 2 3 3 16 (288)
I0907 18:13:21.735517  2825 net.cpp:165] Memory required for data: 499714944
I0907 18:13:21.735522  2825 layer_factory.hpp:77] Creating layer conv8_2_mbox_loc_flat
I0907 18:13:21.735529  2825 net.cpp:100] Creating Layer conv8_2_mbox_loc_flat
I0907 18:13:21.735534  2825 net.cpp:434] conv8_2_mbox_loc_flat <- conv8_2_mbox_loc_perm
I0907 18:13:21.735541  2825 net.cpp:408] conv8_2_mbox_loc_flat -> conv8_2_mbox_loc_flat
I0907 18:13:21.735565  2825 net.cpp:150] Setting up conv8_2_mbox_loc_flat
I0907 18:13:21.735572  2825 net.cpp:157] Top shape: 2 144 (288)
I0907 18:13:21.735575  2825 net.cpp:165] Memory required for data: 499716096
I0907 18:13:21.735579  2825 layer_factory.hpp:77] Creating layer conv8_2_mbox_conf
I0907 18:13:21.735590  2825 net.cpp:100] Creating Layer conv8_2_mbox_conf
I0907 18:13:21.735595  2825 net.cpp:434] conv8_2_mbox_conf <- conv8_2_conv8_2_relu_0_split_2
I0907 18:13:21.735604  2825 net.cpp:408] conv8_2_mbox_conf -> conv8_2_mbox_conf
I0907 18:13:21.736968  2825 net.cpp:150] Setting up conv8_2_mbox_conf
I0907 18:13:21.736980  2825 net.cpp:157] Top shape: 2 84 3 3 (1512)
I0907 18:13:21.736984  2825 net.cpp:165] Memory required for data: 499722144
I0907 18:13:21.736991  2825 layer_factory.hpp:77] Creating layer conv8_2_mbox_conf_perm
I0907 18:13:21.737001  2825 net.cpp:100] Creating Layer conv8_2_mbox_conf_perm
I0907 18:13:21.737007  2825 net.cpp:434] conv8_2_mbox_conf_perm <- conv8_2_mbox_conf
I0907 18:13:21.737016  2825 net.cpp:408] conv8_2_mbox_conf_perm -> conv8_2_mbox_conf_perm
I0907 18:13:21.737097  2825 net.cpp:150] Setting up conv8_2_mbox_conf_perm
I0907 18:13:21.737104  2825 net.cpp:157] Top shape: 2 3 3 84 (1512)
I0907 18:13:21.737108  2825 net.cpp:165] Memory required for data: 499728192
I0907 18:13:21.737112  2825 layer_factory.hpp:77] Creating layer conv8_2_mbox_conf_flat
I0907 18:13:21.737118  2825 net.cpp:100] Creating Layer conv8_2_mbox_conf_flat
I0907 18:13:21.737123  2825 net.cpp:434] conv8_2_mbox_conf_flat <- conv8_2_mbox_conf_perm
I0907 18:13:21.737129  2825 net.cpp:408] conv8_2_mbox_conf_flat -> conv8_2_mbox_conf_flat
I0907 18:13:21.737155  2825 net.cpp:150] Setting up conv8_2_mbox_conf_flat
I0907 18:13:21.737164  2825 net.cpp:157] Top shape: 2 756 (1512)
I0907 18:13:21.737167  2825 net.cpp:165] Memory required for data: 499734240
I0907 18:13:21.737171  2825 layer_factory.hpp:77] Creating layer conv8_2_mbox_priorbox
I0907 18:13:21.737179  2825 net.cpp:100] Creating Layer conv8_2_mbox_priorbox
I0907 18:13:21.737185  2825 net.cpp:434] conv8_2_mbox_priorbox <- conv8_2_conv8_2_relu_0_split_3
I0907 18:13:21.737190  2825 net.cpp:434] conv8_2_mbox_priorbox <- data_data_0_split_5
I0907 18:13:21.737201  2825 net.cpp:408] conv8_2_mbox_priorbox -> conv8_2_mbox_priorbox
I0907 18:13:21.737226  2825 net.cpp:150] Setting up conv8_2_mbox_priorbox
I0907 18:13:21.737234  2825 net.cpp:157] Top shape: 1 2 144 (288)
I0907 18:13:21.737237  2825 net.cpp:165] Memory required for data: 499735392
I0907 18:13:21.737241  2825 layer_factory.hpp:77] Creating layer conv9_2_mbox_loc
I0907 18:13:21.737262  2825 net.cpp:100] Creating Layer conv9_2_mbox_loc
I0907 18:13:21.737267  2825 net.cpp:434] conv9_2_mbox_loc <- conv9_2_conv9_2_relu_0_split_0
I0907 18:13:21.737274  2825 net.cpp:408] conv9_2_mbox_loc -> conv9_2_mbox_loc
I0907 18:13:21.737618  2825 net.cpp:150] Setting up conv9_2_mbox_loc
I0907 18:13:21.737627  2825 net.cpp:157] Top shape: 2 16 1 1 (32)
I0907 18:13:21.737630  2825 net.cpp:165] Memory required for data: 499735520
I0907 18:13:21.737637  2825 layer_factory.hpp:77] Creating layer conv9_2_mbox_loc_perm
I0907 18:13:21.737649  2825 net.cpp:100] Creating Layer conv9_2_mbox_loc_perm
I0907 18:13:21.737654  2825 net.cpp:434] conv9_2_mbox_loc_perm <- conv9_2_mbox_loc
I0907 18:13:21.737663  2825 net.cpp:408] conv9_2_mbox_loc_perm -> conv9_2_mbox_loc_perm
I0907 18:13:21.737741  2825 net.cpp:150] Setting up conv9_2_mbox_loc_perm
I0907 18:13:21.737749  2825 net.cpp:157] Top shape: 2 1 1 16 (32)
I0907 18:13:21.737753  2825 net.cpp:165] Memory required for data: 499735648
I0907 18:13:21.737757  2825 layer_factory.hpp:77] Creating layer conv9_2_mbox_loc_flat
I0907 18:13:21.737763  2825 net.cpp:100] Creating Layer conv9_2_mbox_loc_flat
I0907 18:13:21.737768  2825 net.cpp:434] conv9_2_mbox_loc_flat <- conv9_2_mbox_loc_perm
I0907 18:13:21.737776  2825 net.cpp:408] conv9_2_mbox_loc_flat -> conv9_2_mbox_loc_flat
I0907 18:13:21.737818  2825 net.cpp:150] Setting up conv9_2_mbox_loc_flat
I0907 18:13:21.737826  2825 net.cpp:157] Top shape: 2 16 (32)
I0907 18:13:21.737831  2825 net.cpp:165] Memory required for data: 499735776
I0907 18:13:21.737835  2825 layer_factory.hpp:77] Creating layer conv9_2_mbox_conf
I0907 18:13:21.737848  2825 net.cpp:100] Creating Layer conv9_2_mbox_conf
I0907 18:13:21.737853  2825 net.cpp:434] conv9_2_mbox_conf <- conv9_2_conv9_2_relu_0_split_1
I0907 18:13:21.737860  2825 net.cpp:408] conv9_2_mbox_conf -> conv9_2_mbox_conf
I0907 18:13:21.739239  2825 net.cpp:150] Setting up conv9_2_mbox_conf
I0907 18:13:21.739251  2825 net.cpp:157] Top shape: 2 84 1 1 (168)
I0907 18:13:21.739255  2825 net.cpp:165] Memory required for data: 499736448
I0907 18:13:21.739264  2825 layer_factory.hpp:77] Creating layer conv9_2_mbox_conf_perm
I0907 18:13:21.739272  2825 net.cpp:100] Creating Layer conv9_2_mbox_conf_perm
I0907 18:13:21.739277  2825 net.cpp:434] conv9_2_mbox_conf_perm <- conv9_2_mbox_conf
I0907 18:13:21.739286  2825 net.cpp:408] conv9_2_mbox_conf_perm -> conv9_2_mbox_conf_perm
I0907 18:13:21.739367  2825 net.cpp:150] Setting up conv9_2_mbox_conf_perm
I0907 18:13:21.739374  2825 net.cpp:157] Top shape: 2 1 1 84 (168)
I0907 18:13:21.739377  2825 net.cpp:165] Memory required for data: 499737120
I0907 18:13:21.739382  2825 layer_factory.hpp:77] Creating layer conv9_2_mbox_conf_flat
I0907 18:13:21.739389  2825 net.cpp:100] Creating Layer conv9_2_mbox_conf_flat
I0907 18:13:21.739394  2825 net.cpp:434] conv9_2_mbox_conf_flat <- conv9_2_mbox_conf_perm
I0907 18:13:21.739403  2825 net.cpp:408] conv9_2_mbox_conf_flat -> conv9_2_mbox_conf_flat
I0907 18:13:21.739428  2825 net.cpp:150] Setting up conv9_2_mbox_conf_flat
I0907 18:13:21.739434  2825 net.cpp:157] Top shape: 2 84 (168)
I0907 18:13:21.739437  2825 net.cpp:165] Memory required for data: 499737792
I0907 18:13:21.739441  2825 layer_factory.hpp:77] Creating layer conv9_2_mbox_priorbox
I0907 18:13:21.739454  2825 net.cpp:100] Creating Layer conv9_2_mbox_priorbox
I0907 18:13:21.739459  2825 net.cpp:434] conv9_2_mbox_priorbox <- conv9_2_conv9_2_relu_0_split_2
I0907 18:13:21.739464  2825 net.cpp:434] conv9_2_mbox_priorbox <- data_data_0_split_6
I0907 18:13:21.739473  2825 net.cpp:408] conv9_2_mbox_priorbox -> conv9_2_mbox_priorbox
I0907 18:13:21.739498  2825 net.cpp:150] Setting up conv9_2_mbox_priorbox
I0907 18:13:21.739504  2825 net.cpp:157] Top shape: 1 2 16 (32)
I0907 18:13:21.739507  2825 net.cpp:165] Memory required for data: 499737920
I0907 18:13:21.739511  2825 layer_factory.hpp:77] Creating layer mbox_loc
I0907 18:13:21.739523  2825 net.cpp:100] Creating Layer mbox_loc
I0907 18:13:21.739528  2825 net.cpp:434] mbox_loc <- conv4_3_norm_mbox_loc_flat
I0907 18:13:21.739544  2825 net.cpp:434] mbox_loc <- fc7_mbox_loc_flat
I0907 18:13:21.739552  2825 net.cpp:434] mbox_loc <- conv6_2_mbox_loc_flat
I0907 18:13:21.739558  2825 net.cpp:434] mbox_loc <- conv7_2_mbox_loc_flat
I0907 18:13:21.739564  2825 net.cpp:434] mbox_loc <- conv8_2_mbox_loc_flat
I0907 18:13:21.739569  2825 net.cpp:434] mbox_loc <- conv9_2_mbox_loc_flat
I0907 18:13:21.739578  2825 net.cpp:408] mbox_loc -> mbox_loc
I0907 18:13:21.739606  2825 net.cpp:150] Setting up mbox_loc
I0907 18:13:21.739612  2825 net.cpp:157] Top shape: 2 34928 (69856)
I0907 18:13:21.739616  2825 net.cpp:165] Memory required for data: 500017344
I0907 18:13:21.739620  2825 layer_factory.hpp:77] Creating layer mbox_conf
I0907 18:13:21.739629  2825 net.cpp:100] Creating Layer mbox_conf
I0907 18:13:21.739634  2825 net.cpp:434] mbox_conf <- conv4_3_norm_mbox_conf_flat
I0907 18:13:21.739640  2825 net.cpp:434] mbox_conf <- fc7_mbox_conf_flat
I0907 18:13:21.739647  2825 net.cpp:434] mbox_conf <- conv6_2_mbox_conf_flat
I0907 18:13:21.739653  2825 net.cpp:434] mbox_conf <- conv7_2_mbox_conf_flat
I0907 18:13:21.739660  2825 net.cpp:434] mbox_conf <- conv8_2_mbox_conf_flat
I0907 18:13:21.739665  2825 net.cpp:434] mbox_conf <- conv9_2_mbox_conf_flat
I0907 18:13:21.739672  2825 net.cpp:408] mbox_conf -> mbox_conf
I0907 18:13:21.739696  2825 net.cpp:150] Setting up mbox_conf
I0907 18:13:21.739702  2825 net.cpp:157] Top shape: 2 183372 (366744)
I0907 18:13:21.739706  2825 net.cpp:165] Memory required for data: 501484320
I0907 18:13:21.739711  2825 layer_factory.hpp:77] Creating layer mbox_priorbox
I0907 18:13:21.739717  2825 net.cpp:100] Creating Layer mbox_priorbox
I0907 18:13:21.739722  2825 net.cpp:434] mbox_priorbox <- conv4_3_norm_mbox_priorbox
I0907 18:13:21.739729  2825 net.cpp:434] mbox_priorbox <- fc7_mbox_priorbox
I0907 18:13:21.739735  2825 net.cpp:434] mbox_priorbox <- conv6_2_mbox_priorbox
I0907 18:13:21.739740  2825 net.cpp:434] mbox_priorbox <- conv7_2_mbox_priorbox
I0907 18:13:21.739745  2825 net.cpp:434] mbox_priorbox <- conv8_2_mbox_priorbox
I0907 18:13:21.739750  2825 net.cpp:434] mbox_priorbox <- conv9_2_mbox_priorbox
I0907 18:13:21.739758  2825 net.cpp:408] mbox_priorbox -> mbox_priorbox
I0907 18:13:21.739781  2825 net.cpp:150] Setting up mbox_priorbox
I0907 18:13:21.739787  2825 net.cpp:157] Top shape: 1 2 34928 (69856)
I0907 18:13:21.739791  2825 net.cpp:165] Memory required for data: 501763744
I0907 18:13:21.739795  2825 layer_factory.hpp:77] Creating layer mbox_loss
I0907 18:13:21.739807  2825 net.cpp:100] Creating Layer mbox_loss
I0907 18:13:21.739812  2825 net.cpp:434] mbox_loss <- mbox_loc
I0907 18:13:21.739817  2825 net.cpp:434] mbox_loss <- mbox_conf
I0907 18:13:21.739822  2825 net.cpp:434] mbox_loss <- mbox_priorbox
…
state {
  phase: TEST
}
layer {
  name: "data"
  type: "AnnotatedData"
  top: "data"
  top: "label"
  include {
    phase: TEST
  }
  transform_param {
    mean_value: 104
    mean_value: 117
    mean_value: 123
    resize_param {
      prob: 1
      resize_mode: WARP
      height: 300
      width: 300
      interp_mode: LINEAR
    }
  }
  data_param {
    source: "examples/VOC0712/VOC0712_test_lmdb"
    batch_size: 1
    backend: LMDB
  }
  annotated_data_param {
    batch_sampler {
    }
    label_map_file: "data/VOC0712/labelmap_voc.prototxt"
  }
}
layer {
  name: "conv1_1"
  type: "Convolution"
  bottom: "data"
  top: "conv1_1"
  param {
    lr_mult: 1
    decay_mult: 1
  }
  param {
    lr_mult: 2
    decay_mult: 0
  }
  convolution_param {
    num_output: 64
    pad: 1
    kernel_size: 3
    weight_filler {
      type: "xavier"
    }
    bias_filler {
      type: "constant"
      value: 0
    }
  }
}
layer {
  name: "relu1_1"
  type: "ReLU"
  bottom: "conv1_1"
  top: "conv1_1"
}
layer {
  name: "conv1_2"
  type: "Convolution"
  bottom: "conv1_1"
  top: "conv1_2"
  param {
    lr_mult: 1
    decay_mult: 1
  }
  param {
    lr_mult: 2
    decay_mult: 0
  }
  convolution_param {
    num_output: 64
    pad: 1
    kernel_size: 3
    weight_filler {
      type: "xavier"
    }
    bias_filler {
      type: "constant"
      value: 0
    }
  }
}
layer {
  name: "relu1_2"
  type: "ReLU"
  bottom: "conv1_2"
  top: "conv1_2"
}
layer {
  name: "pool1"
  type: "Pooling"
  bottom: "conv1_2"
  top: "pool1"
  pooling_param {
    pool: MAX
    kernel_size: 2
    stride: 2
  }
}
layer {
  name: "conv2_1"
  type: "Convolution"
  bottom: "pool1"
  top: "conv2_1"
  param {
    lr_mult: 1
    decay_mult: 1
  }
  param {
    lr_mult: 2
    decay_mult: 0
  }
  convolution_param {
    num_output: 128
    pad: 1
    kernel_size: 3
    weight_filler {
      type: "xavier"
    }
    bias_filler {
      type: "constant"
      value: 0
    }
  }
}
layer {
  name: "relu2_1"
  type: "ReLU"
  bottom: "conv2_1"
  top: "conv2_1"
}
layer {
  name: "conv2_2"
  type: "Convolution"
  bottom: "conv2_1"
  top: "conv2_2"
  param {
    lr_mult: 1
    decay_mult: 1
  }
  param {
    lr_mult: 2
    decay_mult: 0
  }
  convolution_param {
    num_output: 128
    pad: 1
    kernel_size: 3
    weight_filler {
      type: "xavier"
    }
    bias_filler {
      type: "constant"
      value: 0
    }
  }
}
layer {
  name: "relu2_2"
  type: "ReLU"
  bottom: "conv2_2"
  top: "conv2_2"
}
layer {
  name: "pool2"
  type: "Pooling"
  bottom: "conv2_2"
  top: "pool2"
  pooling_param {
    pool: MAX
    kernel_size: 2
    stride: 2
  }
}
layer {
  name: "conv3_1"
  type: "Convolution"
  bottom: "pool2"
  top: "conv3_1"
  param {
    lr_mult: 1
    decay_mult: 1
  }
  param {
    lr_mult: 2
    decay_mult: 0
  }
  convolution_param {
    num_output: 256
    pad: 1
    kernel_size: 3
    weight_filler {
      type: "xavier"
    }
    bias_filler {
      type: "constant"
      value: 0
    }
  }
}
layer {
  name: "relu3_1"
  type: "ReLU"
  bottom: "conv3_1"
  top: "conv3_1"
}
layer {
  name: "conv3_2"
  type: "Convolution"
  bottom: "conv3_1"
  top: "conv3_2"
  param {
    lr_mult: 1
    decay_mult: 1
  }
  param {
    lr_mult: 2
    decay_mult: 0
  }
  convolution_param {
    num_output: 256
    pad: 1
    kernel_size: 3
    weight_filler {
      type: "xavier"
    }
    bias_filler {
      type: "constant"
      value: 0
    }
  }
}
layer {
  name: "relu3_2"
  type: "ReLU"
  bottom: "conv3_2"
  top: "conv3_2"
}
layer {
  name: "conv3_3"
  type: "Convolution"
  bottom: "conv3_2"
  top: "conv3_3"
  param {
    lr_mult: 1
    decay_mult: 1
  }
  param {
    lr_mult: 2
    decay_mult: 0
  }
  convolution_param {
    num_output: 256
    pad: 1
    kernel_size: 3
    weight_filler {
      type: "xavier"
    }
    bias_filler {
      type: "constant"
      value: 0
    }
  }
}
layer {
  name: "relu3_3"
  type: "ReLU"
  bottom: "conv3_3"
  top: "conv3_3"
}
layer {
  name: "pool3"
  type: "Pooling"
  bottom: "conv3_3"
  top: "pool3"
  pooling_param {
    pool: MAX
    kernel_size: 2
    stride: 2
  }
}
layer {
  name: "conv4_1"
  type: "Convolution"
  bottom: "pool3"
  top: "conv4_1"
  param {
    lr_mult: 1
    decay_mult: 1
  }
  param {
    lr_mult: 2
    decay_mult: 0
  }
  convolution_param {
    num_output: 512
    pad: 1
    kernel_size: 3
    weight_filler {
      type: "xavier"
    }
    bias_filler {
      type: "constant"
      value: 0
    }
  }
}
layer {
  name: "relu4_1"
  type: "ReLU"
  bottom: "conv4_1"
  top: "conv4_1"
}
layer {
  name: "conv4_2"
  type: "Convolution"
  bottom: "conv4_1"
  top: "conv4_2"
  param {
    lr_mult: 1
    decay_mult: 1
  }
  param {
    lr_mult: 2
    decay_mult: 0
  }
  convolution_param {
    num_output: 512
    pad: 1
    kernel_size: 3
    weight_filler {
      type: "xavier"
    }
    bias_filler {
      type: "constant"
      value: 0
    }
  }
}
layer {
  name: "relu4_2"
  type: "ReLU"
  bottom: "conv4_2"
  top: "conv4_2"
}
layer {
  name: "conv4_3"
  type: "Convolution"
  bottom: "conv4_2"
  top: "conv4_3"
  param {
    lr_mult: 1
    decay_mult: 1
  }
  param {
    lr_mult: 2
    decay_mult: 0
  }
  convolution_param {
    num_output: 512
    pad: 1
    kernel_size: 3
    weight_filler {
      type: "xavier"
    }
    bias_filler {
      type: "constant"
      value: 0
    }
  }
}
layer {
  name: "relu4_3"
  type: "ReLU"
  bottom: "conv4_3"
  top: "conv4_3"
}
layer {
  name: "pool4"
  type: "Pooling"
  bottom: "conv4_3"
  top: "pool4"
  pooling_param {
    pool: MAX
    kernel_size: 2
    stride: 2
  }
}
layer {
  name: "conv5_1"
  type: "Convolution"
  bottom: "pool4"
  top: "conv5_1"
  param {
    lr_mult: 1
    decay_mult: 1
  }
  param {
    lr_mult: 2
    decay_mult: 0
  }
  convolution_param {
    num_output: 512
    pad: 1
    kernel_size: 3
    weight_filler {
      type: "xavier"
    }
    bias_filler {
      type: "constant"
      value: 0
    }
    dilation: 1
  }
}
layer {
  name: "relu5_1"
  type: "ReLU"
  bottom: "conv5_1"
  top: "conv5_1"
}
layer {
  name: "conv5_2"
  type: "Convolution"
  bottom: "conv5_1"
  top: "conv5_2"
  param {
    lr_mult: 1
    decay_mult: 1
  }
  param {
    lr_mult: 2
    decay_mult: 0
  }
  convolution_param {
    num_output: 512
    pad: 1
    kernel_size: 3
    weight_filler {
      type: "xavier"
    }
    bias_filler {
      type: "constant"
      value: 0
    }
    dilation: 1
  }
}
layer {
  name: "relu5_2"
  type: "ReLU"
  bottom: "conv5_2"
  top: "conv5_2"
}
layer {
  name: "conv5_3"
  type: "Convolution"
  bottom: "conv5_2"
  top: "conv5_3"
  param {
    lr_mult: 1
    decay_mult: 1
  }
  param {
    lr_mult: 2
    decay_mult: 0
  }
  convolution_param {
    num_output: 512
    pad: 1
    kernel_size: 3
    weight_filler {
      type: "xavier"
    }
    bias_filler {
      type: "constant"
      value: 0
    }
    dilation: 1
  }
}
layer {
  name: "relu5_3"
  type: "ReLU"
  bottom: "conv5_3"
  top: "conv5_3"
}
layer {
  name: "pool5"
  type: "Pooling"
  bottom: "conv5_3"
  top: "pool5"
  pooling_param {
    pool: MAX
    kernel_size: 3
    stride: 1
    pad: 1
  }
}
layer {
  name: "fc6"
  type: "Convolution"
  bottom: "pool5"
  top: "fc6"
  param {
    lr_mult: 1
    decay_mult: 1
  }
  param {
    lr_mult: 2
    decay_mult: 0
  }
  convolution_param {
    num_output: 1024
    pad: 6
    kernel_size: 3
    weight_filler {
      type: "xavier"
    }
    bias_filler {
      type: "constant"
      value: 0
    }
    dilation: 6
  }
}
layer {
  name: "relu6"
  type: "ReLU"
  bottom: "fc6"
  top: "fc6"
}
layer {
  name: "fc7"
  type: "Convolution"
  bottom: "fc6"
  top: "fc7"
  param {
    lr_mult: 1
    decay_mult: 1
  }
  param {
    lr_mult: 2
    decay_mult: 0
  }
  convolution_param {
    num_output: 1024
    kernel_size: 1
    weight_filler {
      type: "xavier"
    }
    bias_filler {
      type: "constant"
      value: 0
    }
  }
}
layer {
  name: "relu7"
  type: "ReLU"
  bottom: "fc7"
  top: "fc7"
}
layer {
  name: "conv6_1"
  type: "Convolution"
  bottom: "fc7"
  top: "conv6_1"
  param {
    lr_mult: 1
    decay_mult: 1
  }
  param {
    lr_mult: 2
    decay_mult: 0
  }
  convolution_param {
    num_output: 256
    pad: 0
    kernel_size: 1
    stride: 1
    weight_filler {
      type: "xavier"
    }
    bias_filler {
      type: "constant"
      value: 0
    }
  }
}
layer {
  name: "conv6_1_relu"
  type: "ReLU"
  bottom: "conv6_1"
  top: "conv6_1"
}
layer {
  name: "conv6_2"
  type: "Convolution"
  bottom: "conv6_1"
  top: "conv6_2"
  param {
    lr_mult: 1
    decay_mult: 1
  }
  param {
    lr_mult: 2
    decay_mult: 0
  }
  convolution_param {
    num_output: 512
    pad: 1
    kernel_size: 3
    stride: 2
    weight_filler {
      type: "xavier"
    }
    bias_filler {
      type: "constant"
      value: 0
    }
  }
}
layer {
  name: "conv6_2_relu"
  type: "ReLU"
  bottom: "conv6_2"
  top: "conv6_2"
}
layer {
  name: "conv7_1"
  type: "Convolution"
  bottom: "conv6_2"
  top: "conv7_1"
  param {
    lr_mult: 1
    decay_mult: 1
  }
  param {
    lr_mult: 2
    decay_mult: 0
  }
  convolution_param {
    num_output: 128
    pad: 0
    kernel_size: 1
    stride: 1
    weight_filler {
      type: "xavier"
    }
    bias_filler {
      type: "constant"
      value: 0
    }
  }
}
layer {
  name: "conv7_1_relu"
  type: "ReLU"
  bottom: "conv7_1"
  top: "conv7_1"
}
layer {
  name: "conv7_2"
  type: "Convolution"
  bottom: "conv7_1"
  top: "conv7_2"
  param {
    lr_mult: 1
    decay_mult: 1
  }
  param {
    lr_mult: 2
    decay_mult: 0
  }
  convolution_param {
    num_output: 256
    pad: 1
    kernel_size: 3
    stride: 2
    weight_filler {
      type: "xavier"
    }
    bias_filler {
      type: "constant"
      value: 0
    }
  }
}
layer {
  name: "conv7_2_relu"
  type: "ReLU"
  bottom: "conv7_2"
  top: "conv7_2"
}
layer {
  name: "conv8_1"
  type: "Convolution"
  bottom: "conv7_2"
  top: "conv8_1"
  param {
    lr_mult: 1
    decay_mult: 1
  }
  param {
    lr_mult: 2
    decay_mult: 0
  }
  convolution_param {
    num_output: 128
    pad: 0
    kernel_size: 1
    stride: 1
    weight_filler {
      type: "xavier"
    }
    bias_filler {
      type: "constant"
      value: 0
    }
  }
}
layer {
  name: "conv8_1_relu"
  type: "ReLU"
  bottom: "conv8_1"
  top: "conv8_1"
}
layer {
  name: "conv8_2"
  type: "Convolution"
  bottom: "conv8_1"
  top: "conv8_2"
  param {
    lr_mult: 1
    decay_mult: 1
  }
  param {
    lr_mult: 2
    decay_mult: 0
  }
  convolution_param {
    num_output: 256
    pad: 0
    kernel_size: 3
    stride: 1
    weight_filler {
      type: "xavier"
    }
    bias_filler {
      type: "constant"
      value: 0
    }
  }
}
layer {
  name: "conv8_2_relu"
  type: "ReLU"
  bottom: "conv8_2"
  top: "conv8_2"
}
layer {
  name: "conv9_1"
  type: "Convolution"
  bottom: "conv8_2"
  top: "conv9_1"
  param {
    lr_mult: 1
    decay_mult: 1
  }
  param {
    lr_mult: 2
    decay_mult: 0
  }
  convolution_param {
    num_output: 128
    pad: 0
    kernel_size: 1
    stride: 1
    weight_filler {
      type: "xavier"
    }
    bias_filler {
      type: "constant"
      value: 0
    }
  }
}
layer {
  name: "conv9_1_relu"
  type: "ReLU"
  bottom: "conv9_1"
  top: "conv9_1"
}
layer {
  name: "conv9_2"
  type: "Convolution"
  bottom: "conv9_1"
  top: "conv9_2"
  param {
    lr_mult: 1
    decay_mult: 1
  }
  param {
    lr_mult: 2
    decay_mult: 0
  }
  convolution_param {
    num_output: 256
    pad: 0
    kernel_size: 3
    stride: 1
    weight_filler {
      type: "xavier"
    }
    bias_filler {
      type: "constant"
      value: 0
    }
  }
}
layer {
  name: "conv9_2_relu"
  type: "ReLU"
  bottom: "conv9_2"
  top: "conv9_2"
}
layer {
  name: "conv4_3_norm"
  type: "Normalize"
  bottom: "conv4_3"
  top: "conv4_3_norm"
  norm_param {
    across_spatial: false
    scale_filler {
      type: "constant"
      value: 20
    }
    channel_shared: false
  }
}
layer {
  name: "conv4_3_norm_mbox_loc"
  type: "Convolution"
  bottom: "conv4_3_norm"
  top: "conv4_3_norm_mbox_loc"
  param {
    lr_mult: 1
    decay_mult: 1
  }
  param {
    lr_mult: 2
    decay_mult: 0
  }
  convolution_param {
    num_output: 16
    pad: 1
    kernel_size: 3
    stride: 1
    weight_filler {
      type: "xavier"
    }
    bias_filler {
      type: "constant"
      value: 0
    }
  }
}
layer {
  name: "conv4_3_norm_mbox_loc_perm"
  type: "Permute"
  bottom: "conv4_3_norm_mbox_loc"
  top: "conv4_3_norm_mbox_loc_perm"
  permute_param {
    order: 0
    order: 2
    order: 3
    order: 1
  }
}
layer {
  name: "conv4_3_norm_mbox_loc_flat"
  type: "Flatten"
  bottom: "conv4_3_norm_mbox_loc_perm"
  top: "conv4_3_norm_mbox_loc_flat"
  flatten_param {
    axis: 1
  }
}
layer {
  name: "conv4_3_norm_mbox_conf"
  type: "Convolution"
  bottom: "conv4_3_norm"
  top: "conv4_3_norm_mbox_conf"
  param {
    lr_mult: 1
    decay_mult: 1
  }
  param {
    lr_mult: 2
    decay_mult: 0
  }
  convolution_param {
    num_output: 84
    pad: 1
    kernel_size: 3
    stride: 1
    weight_filler {
      type: "xavier"
    }
    bias_filler {
      type: "constant"
      value: 0
    }
  }
}
layer {
  name: "conv4_3_norm_mbox_conf_perm"
  type: "Permute"
  bottom: "conv4_3_norm_mbox_conf"
  top: "conv4_3_norm_mbox_conf_perm"
  permute_param {
    order: 0
    order: 2
    order: 3
    order: 1
  }
}
layer {
  name: "conv4_3_norm_mbox_conf_flat"
  type: "Flatten"
  bottom: "conv4_3_norm_mbox_conf_perm"
  top: "conv4_3_norm_mbox_conf_flat"
  flatten_param {
    axis: 1
  }
}
layer {
  name: "conv4_3_norm_mbox_priorbox"
  type: "PriorBox"
  bottom: "conv4_3_norm"
  bottom: "data"
  top: "conv4_3_norm_mbox_priorbox"
  prior_box_param {
    min_size: 30
    max_size: 60
    aspect_ratio: 2
    flip: true
    clip: false
    variance: 0.1
    variance: 0.1
    variance: 0.2
    variance: 0.2
    step: 8
    offset: 0.5
  }
}
layer {
  name: "fc7_mbox_loc"
  type: "Convolution"
  bottom: "fc7"
  top: "fc7_mbox_loc"
  param {
    lr_mult: 1
    decay_mult: 1
  }
  param {
    lr_mult: 2
    decay_mult: 0
  }
  convolution_param {
    num_output: 24
    pad: 1
    kernel_size: 3
    stride: 1
    weight_filler {
      type: "xavier"
    }
    bias_filler {
      type: "constant"
      value: 0
    }
  }
}
layer {
  name: "fc7_mbox_loc_perm"
  type: "Permute"
  bottom: "fc7_mbox_loc"
  top: "fc7_mbox_loc_perm"
  permute_param {
    order: 0
    order: 2
    order: 3
    order: 1
  }
}
layer {
  name: "fc7_mbox_loc_flat"
  type: "Flatten"
  bottom: "fc7_mbox_loc_perm"
  top: "fc7_mbox_loc_flat"
  flatten_param {
    axis: 1
  }
}
layer {
  name: "fc7_mbox_conf"
  type: "Convolution"
  bottom: "fc7"
  top: "fc7_mbox_conf"
  param {
    lr_mult: 1
    decay_mult: 1
  }
  param {
    lr_mult: 2
    decay_mult: 0
  }
  convolution_param {
    num_output: 126
    pad: 1
    kernel_size: 3
    stride: 1
    weight_filler {
      type: "xavier"
    }
    bias_filler {
      type: "constant"
      value: 0
    }
  }
}
layer {
  name: "fc7_mbox_conf_perm"
  type: "Permute"
  bottom: "fc7_mbox_conf"
  top: "fc7_mbox_conf_perm"
  permute_param {
    order: 0
    order: 2
    order: 3
    order: 1
  }
}
layer {
  name: "fc7_mbox_conf_flat"
  type: "Flatten"
  bottom: "fc7_mbox_conf_perm"
  top: "fc7_mbox_conf_flat"
  flatten_param {
    axis: 1
  }
}
layer {
  name: "fc7_mbox_priorbox"
  type: "PriorBox"
  bottom: "fc7"
  bottom: "data"
  top: "fc7_mbox_priorbox"
  prior_box_param {
    min_size: 60
    max_size: 111
    aspect_ratio: 2
    aspect_ratio: 3
    flip: true
    clip: false
    variance: 0.1
    variance: 0.1
    variance: 0.2
    variance: 0.2
    step: 16
    offset: 0.5
  }
}
layer {
  name: "conv6_2_mbox_loc"
  type: "Convolution"
  bottom: "conv6_2"
  top: "conv6_2_mbox_loc"
  param {
    lr_mult: 1
    decay_mult: 1
  }
  param {
    lr_mult: 2
    decay_mult: 0
  }
  convolution_param {
    num_output: 24
    pad: 1
    kernel_size: 3
    stride: 1
    weight_filler {
      type: "xavier"
    }
    bias_filler {
      type: "constant"
      value: 0
    }
  }
}
layer {
  name: "conv6_2_mbox_loc_perm"
  type: "Permute"
  bottom: "conv6_2_mbox_loc"
  top: "conv6_2_mbox_loc_perm"
  permute_param {
    order: 0
    order: 2
    order: 3
    order: 1
  }
}
layer {
  name: "conv6_2_mbox_loc_flat"
  type: "Flatten"
  bottom: "conv6_2_mbox_loc_perm"
  top: "conv6_2_mbox_loc_flat"
  flatten_param {
    axis: 1
  }
}
layer {
  name: "conv6_2_mbox_conf"
  type: "Convolution"
  bottom: "conv6_2"
  top: "conv6_2_mbox_conf"
  param {
    lr_mult: 1
    decay_mult: 1
  }
  param {
    lr_mult: 2
    decay_mult: 0
  }
  convolution_param {
    num_output: 126
    pad: 1
    kernel_size: 3
    stride: 1
    weight_filler {
      type: "xavier"
    }
    bias_filler {
      type: "constant"
      value: 0
    }
  }
}
layer {
  name: "conv6_2_mbox_conf_perm"
  type: "Permute"
  bottom: "conv6_2_mbox_conf"
  top: "conv6_2_mbox_conf_perm"
  permute_param {
    order: 0
    order: 2
    order: 3
    order: 1
  }
}
layer {
  name: "conv6_2_mbox_conf_flat"
  type: "Flatten"
  bottom: "conv6_2_mbox_conf_perm"
  top: "conv6_2_mbox_conf_flat"
  flatten_param {
    axis: 1
  }
}
layer {
  name: "conv6_2_mbox_priorbox"
  type: "PriorBox"
  bottom: "conv6_2"
  bottom: "data"
  top: "conv6_2_mbox_priorbox"
  prior_box_param {
    min_size: 111
    max_size: 162
    aspect_ratio: 2
    aspect_ratio: 3
    flip: true
    clip: false
    variance: 0.1
    variance: 0.1
    variance: 0.2
    variance: 0.2
    step: 32
    offset: 0.5
  }
}
layer {
  name: "conv7_2_mbox_loc"
  type: "Convolution"
  bottom: "conv7_2"
  top: "conv7_2_mbox_loc"
  param {
    lr_mult: 1
    decay_mult: 1
  }
  param {
    lr_mult: 2
    decay_mult: 0
  }
  convolution_param {
    num_output: 24
    pad: 1
    kernel_size: 3
    stride: 1
    weight_filler {
      type: "xavier"
    }
    bias_filler {
      type: "constant"
      value: 0
    }
  }
}
layer {
  name: "conv7_2_mbox_loc_perm"
  type: "Permute"
  bottom: "conv7_2_mbox_loc"
  top: "conv7_2_mbox_loc_perm"
  permute_param {
    order: 0
    order: 2
    order: 3
    order: 1
  }
}
layer {
  name: "conv7_2_mbox_loc_flat"
  type: "Flatten"
  bottom: "conv7_2_mbox_loc_perm"
  top: "conv7_2_mbox_loc_flat"
  flatten_param {
    axis: 1
  }
}
layer {
  name: "conv7_2_mbox_conf"
  type: "Convolution"
  bottom: "conv7_2"
  top: "conv7_2_mbox_conf"
  param {
    lr_mult: 1
    decay_mult: 1
  }
  param {
    lr_mult: 2
    decay_mult: 0
  }
  convolution_param {
    num_output: 126
    pad: 1
    kernel_size: 3
    stride: 1
    weight_filler {
      type: "xavier"
    }
    bias_filler {
      type: "constant"
      value: 0
    }
  }
}
layer {
  name: "conv7_2_mbox_conf_perm"
  type: "Permute"
  bottom: "conv7_2_mbox_conf"
  top: "conv7_2_mbox_conf_perm"
  permute_param {
    order: 0
    order: 2
    order: 3
    order: 1
  }
}
layer {
  name: "conv7_2_mbox_conf_flat"
  type: "Flatten"
  bottom: "conv7_2_mbox_conf_perm"
  top: "conv7_2_mbox_conf_flat"
  flatten_param {
    axis: 1
  }
}
layer {
  name: "conv7_2_mbox_priorbox"
  type: "PriorBox"
  bottom: "conv7_2"
  bottom: "data"
  top: "conv7_2_mbox_priorbox"
  prior_box_param {
    min_size: 162
    max_size: 213
    aspect_ratio: 2
    aspect_ratio: 3
    flip: true
    clip: false
    variance: 0.1
    variance: 0.1
    variance: 0.2
    variance: 0.2
    step: 64
    offset: 0.5
  }
}
layer {
  name: "conv8_2_mbox_loc"
  type: "Convolution"
  bottom: "conv8_2"
  top: "conv8_2_mbox_loc"
  param {
    lr_mult: 1
    decay_mult: 1
  }
  param {
    lr_mult: 2
    decay_mult: 0
  }
  convolution_param {
    num_output: 16
    pad: 1
    kernel_size: 3
    stride: 1
    weight_filler {
      type: "xavier"
    }
    bias_filler {
      type: "constant"
      value: 0
    }
  }
}
layer {
  name: "conv8_2_mbox_loc_perm"
  type: "Permute"
  bottom: "conv8_2_mbox_loc"
  top: "conv8_2_mbox_loc_perm"
  permute_param {
    order: 0
    order: 2
    order: 3
    order: 1
  }
}
layer {
  name: "conv8_2_mbox_loc_flat"
  type: "Flatten"
  bottom: "conv8_2_mbox_loc_perm"
  top: "conv8_2_mbox_loc_flat"
  flatten_param {
    axis: 1
  }
}
layer {
  name: "conv8_2_mbox_conf"
  type: "Convolution"
  bottom: "conv8_2"
  top: "conv8_2_mbox_conf"
  param {
    lr_mult: 1
    decay_mult: 1
  }
  param {
    lr_mult: 2
    decay_mult: 0
  }
  convolution_param {
    num_output: 84
    pad: 1
    kernel_size: 3
    stride: 1
    weight_filler {
      type: "xavier"
    }
    bias_filler {
      type: "constant"
      value: 0
    }
  }
}
layer {
  name: "conv8_2_mbox_conf_perm"
  type: "Permute"
  bottom: "conv8_2_mbox_conf"
  top: "conv8_2_mbox_conf_perm"
  permute_param {
    order: 0
    order: 2
    order: 3
    order: 1
  }
}
layer {
  name: "conv8_2_mbox_conf_flat"
  type: "Flatten"
  bottom: "conv8_2_mbox_conf_perm"
  top: "conv8_2_mbox_conf_flat"
  flatten_param {
    axis: 1
  }
}
layer {
  name: "conv8_2_mbox_priorbox"
  type: "PriorBox"
  bottom: "conv8_2"
  bottom: "data"
  top: "conv8_2_mbox_priorbox"
  prior_box_param {
    min_size: 213
    max_size: 264
    aspect_ratio: 2
    flip: true
    clip: false
    variance: 0.1
    variance: 0.1
    variance: 0.2
    variance: 0.2
    step: 100
    offset: 0.5
  }
}
layer {
  name: "conv9_2_mbox_loc"
  type: "Convolution"
  bottom: "conv9_2"
  top: "conv9_2_mbox_loc"
  param {
    lr_mult: 1
    decay_mult: 1
  }
  param {
    lr_mult: 2
    decay_mult: 0
  }
  convolution_param {
    num_output: 16
    pad: 1
    kernel_size: 3
    stride: 1
    weight_filler {
      type: "xavier"
    }
    bias_filler {
      type: "constant"
      value: 0
    }
  }
}
layer {
  name: "conv9_2_mbox_loc_perm"
  type: "Permute"
  bottom: "conv9_2_mbox_loc"
  top: "conv9_2_mbox_loc_perm"
  permute_param {
    order: 0
    order: 2
    order: 3
    order: 1
  }
}
layer {
  name: "conv9_2_mbox_loc_flat"
  type: "Flatten"
  bottom: "conv9_2_mbox_loc_perm"
  top: "conv9_2_mbox_loc_flat"
  flatten_param {
    axis: 1
  }
}
layer {
  name: "conv9_2_mbox_conf"
  type: "Convolution"
  bottom: "conv9_2"
  top: "conv9_2_mbox_conf"
  param {
    lr_mult: 1
    decay_mult: 1
  }
  param {
    lr_mult: 2
    decay_mult: 0
  }
  convolution_param {
    num_output: 84
    pad: 1
    kernel_size: 3
    stride: 1
    weight_filler {
      type: "xavier"
    }
    bias_filler {
      type: "constant"
      value: 0
    }
  }
}
layer {
  name: "conv9_2_mbox_conf_perm"
  type: "Permute"
  bottom: "conv9_2_mbox_conf"
  top: "conv9_2_mbox_conf_perm"
  permute_param {
    order: 0
    order: 2
    order: 3
    order: 1
  }
}
layer {
  name: "conv9_2_mbox_conf_flat"
  type: "Flatten"
  bottom: "conv9_2_mbox_conf_perm"
  top: "conv9_2_mbox_conf_flat"
  flatten_param {
    axis: 1
  }
}
layer {
  name: "conv9_2_mbox_priorbox"
  type: "PriorBox"
  bottom: "conv9_2"
  bottom: "data"
  top: "conv9_2_mbox_priorbox"
  prior_box_param {
    min_size: 264
    max_size: 315
    aspect_ratio: 2
    flip: true
    clip: false
    variance: 0.1
    variance: 0.1
    variance: 0.2
    variance: 0.2
    step: 300
    offset: 0.5
  }
}
layer {
  name: "mbox_loc"
  type: "Concat"
  bottom: "conv4_3_norm_mbox_loc_flat"
  bottom: "fc7_mbox_loc_flat"
  bottom: "conv6_2_mbox_loc_flat"
  bottom: "conv7_2_mbox_loc_flat"
  bottom: "conv8_2_mbox_loc_flat"
  bottom: "conv9_2_mbox_loc_flat"
  top: "mbox_loc"
  concat_param {
    axis: 1
  }
}
layer {
  name: "mbox_conf"
  type: "Concat"
  bottom: "conv4_3_norm_mbox_conf_flat"
  bottom: "fc7_mbox_conf_flat"
  bottom: "conv6_2_mbox_conf_flat"
  bottom: "conv7_2_mbox_conf_flat"
  bottom: "conv8_2_mbox_conf_flat"
  bottom: "conv9_2_mbox_conf_flat"
  top: "mbox_conf"
  concat_param {
    axis: 1
  }
}
layer {
  name: "mbox_priorbox"
  type: "Concat"
  bottom: "conv4_3_norm_mbox_priorbox"
  bottom: "fc7_mbox_priorbox"
  bottom: "conv6_2_mbox_priorbox"
  bottom: "conv7_2_mbox_priorbox"
  bottom: "conv8_2_mbox_priorbox"
  bottom: "conv9_2_mbox_priorbox"
  top: "mbox_priorbox"
  concat_param {
    axis: 2
  }
}
layer {
  name: "mbox_conf_reshape"
  type: "Reshape"
  bottom: "mbox_conf"
  top: "mbox_conf_reshape"
  reshape_param {
    shape {
      dim: 0
      dim: -1
      dim: 21
    }
  }
}
layer {
  name: "mbox_conf_softmax"
  type: "Softmax"
  bottom: "mbox_conf_reshape"
  top: "mbox_conf_softmax"
  softmax_param {
    axis: 2
  }
}
layer {
  name: "mbox_conf_flatten"
  type: "Flatten"
  bottom: "mbox_conf_softmax"
  top: "mbox_conf_flatten"
  flatten_param {
    axis: 1
  }
}
layer {
  name: "detection_out"
  type: "DetectionOutput"
  bottom: "mbox_loc"
  bottom: "mbox_conf_flatten"
  bottom: "mbox_priorbox"
  top: "detection_out"
  include {
    phase: TEST
  }
  detection_output_param {
    num_classes: 21
    share_location: true
    background_label_id: 0
    nms_param {
      nms_threshold: 0.45
      top_k: 400
    }
    save_output_param {
      output_directory: "/home/xjera/data/VOCdevkit/results/VOC2007/SSD_300x300/Main"
      output_name_prefix: "comp4_det_test_"
      output_format: "VOC"
      label_map_file: "data/VOC0712/labelmap_voc.prototxt"
      name_size_file: "data/VOC0712/test_name_size.txt"
      num_test_image: 4952
    }
    code_type: CENTER_SIZE
    keep_top_k: 200
    confidence_threshold: 0.01
  }
}
layer {
  name: "detection_eval"
  type: "DetectionEvaluate"
  bottom: "detection_out"
  bottom: "label"
  top: "detection_eval"
  include {
    phase: TEST
  }
  detection_evaluate_param {
    num_classes: 21
    background_label_id: 0
    overlap_threshold: 0.5
    evaluate_difficult_gt: false
    name_size_file: "data/VOC0712/test_name_size.txt"
  }
}
I0907 18:13:21.742600  2825 layer_factory.hpp:77] Creating layer data
I0907 18:13:21.742663  2825 net.cpp:100] Creating Layer data
I0907 18:13:21.742673  2825 net.cpp:408] data -> data
I0907 18:13:21.742684  2825 net.cpp:408] data -> label
I0907 18:13:21.743391  2841 db_lmdb.cpp:35] Opened lmdb examples/VOC0712/VOC0712_test_lmdb
I0907 18:13:21.745229  2825 annotated_data_layer.cpp:62] output data size: 1,3,300,300
I0907 18:13:21.747272  2825 net.cpp:150] Setting up data
I0907 18:13:21.747292  2825 net.cpp:157] Top shape: 1 3 300 300 (270000)
I0907 18:13:21.747298  2825 net.cpp:157] Top shape: 1 1 2 8 (16)
I0907 18:13:21.747300  2825 net.cpp:165] Memory required for data: 1080064
I0907 18:13:21.747308  2825 layer_factory.hpp:77] Creating layer data_data_0_split
I0907 18:13:21.747323  2825 net.cpp:100] Creating Layer data_data_0_split
I0907 18:13:21.747328  2825 net.cpp:434] data_data_0_split <- data
I0907 18:13:21.747337  2825 net.cpp:408] data_data_0_split -> data_data_0_split_0
I0907 18:13:21.747352  2825 net.cpp:408] data_data_0_split -> data_data_0_split_1
I0907 18:13:21.747361  2825 net.cpp:408] data_data_0_split -> data_data_0_split_2
I0907 18:13:21.747372  2825 net.cpp:408] data_data_0_split -> data_data_0_split_3
I0907 18:13:21.747381  2825 net.cpp:408] data_data_0_split -> data_data_0_split_4
I0907 18:13:21.747391  2825 net.cpp:408] data_data_0_split -> data_data_0_split_5
I0907 18:13:21.747400  2825 net.cpp:408] data_data_0_split -> data_data_0_split_6
I0907 18:13:21.747488  2825 net.cpp:150] Setting up data_data_0_split
I0907 18:13:21.747494  2825 net.cpp:157] Top shape: 1 3 300 300 (270000)
I0907 18:13:21.747499  2825 net.cpp:157] Top shape: 1 3 300 300 (270000)
I0907 18:13:21.747505  2825 net.cpp:157] Top shape: 1 3 300 300 (270000)
I0907 18:13:21.747509  2825 net.cpp:157] Top shape: 1 3 300 300 (270000)
I0907 18:13:21.747514  2825 net.cpp:157] Top shape: 1 3 300 300 (270000)
I0907 18:13:21.747519  2825 net.cpp:157] Top shape: 1 3 300 300 (270000)
I0907 18:13:21.747524  2825 net.cpp:157] Top shape: 1 3 300 300 (270000)
I0907 18:13:21.747527  2825 net.cpp:165] Memory required for data: 8640064
I0907 18:13:21.747531  2825 layer_factory.hpp:77] Creating layer conv1_1
I0907 18:13:21.747545  2825 net.cpp:100] Creating Layer conv1_1
I0907 18:13:21.747550  2825 net.cpp:434] conv1_1 <- data_data_0_split_0
I0907 18:13:21.747557  2825 net.cpp:408] conv1_1 -> conv1_1
I0907 18:13:21.747859  2825 net.cpp:150] Setting up conv1_1
I0907 18:13:21.747870  2825 net.cpp:157] Top shape: 1 64 300 300 (5760000)
I0907 18:13:21.747874  2825 net.cpp:165] Memory required for data: 31680064
I0907 18:13:21.747886  2825 layer_factory.hpp:77] Creating layer relu1_1
I0907 18:13:21.747894  2825 net.cpp:100] Creating Layer relu1_1
I0907 18:13:21.747898  2825 net.cpp:434] relu1_1 <- conv1_1
I0907 18:13:21.747903  2825 net.cpp:395] relu1_1 -> conv1_1 (in-place)
I0907 18:13:21.747911  2825 net.cpp:150] Setting up relu1_1
I0907 18:13:21.747917  2825 net.cpp:157] Top shape: 1 64 300 300 (5760000)
I0907 18:13:21.747920  2825 net.cpp:165] Memory required for data: 54720064
I0907 18:13:21.747925  2825 layer_factory.hpp:77] Creating layer conv1_2
I0907 18:13:21.747936  2825 net.cpp:100] Creating Layer conv1_2
I0907 18:13:21.747939  2825 net.cpp:434] conv1_2 <- conv1_1
I0907 18:13:21.747946  2825 net.cpp:408] conv1_2 -> conv1_2
I0907 18:13:21.748739  2825 net.cpp:150] Setting up conv1_2
I0907 18:13:21.748750  2825 net.cpp:157] Top shape: 1 64 300 300 (5760000)
I0907 18:13:21.748755  2825 net.cpp:165] Memory required for data: 77760064
I0907 18:13:21.748764  2825 layer_factory.hpp:77] Creating layer relu1_2
I0907 18:13:21.748771  2825 net.cpp:100] Creating Layer relu1_2
I0907 18:13:21.748776  2825 net.cpp:434] relu1_2 <- conv1_2
I0907 18:13:21.748782  2825 net.cpp:395] relu1_2 -> conv1_2 (in-place)
I0907 18:13:21.748790  2825 net.cpp:150] Setting up relu1_2
I0907 18:13:21.748795  2825 net.cpp:157] Top shape: 1 64 300 300 (5760000)
I0907 18:13:21.748800  2825 net.cpp:165] Memory required for data: 100800064
I0907 18:13:21.748802  2825 layer_factory.hpp:77] Creating layer pool1
I0907 18:13:21.748809  2825 net.cpp:100] Creating Layer pool1
I0907 18:13:21.748813  2825 net.cpp:434] pool1 <- conv1_2
I0907 18:13:21.748819  2825 net.cpp:408] pool1 -> pool1
I0907 18:13:21.748869  2825 net.cpp:150] Setting up pool1
I0907 18:13:21.748878  2825 net.cpp:157] Top shape: 1 64 150 150 (1440000)
I0907 18:13:21.748881  2825 net.cpp:165] Memory required for data: 106560064
I0907 18:13:21.748885  2825 layer_factory.hpp:77] Creating layer conv2_1
I0907 18:13:21.748895  2825 net.cpp:100] Creating Layer conv2_1
I0907 18:13:21.748899  2825 net.cpp:434] conv2_1 <- pool1
I0907 18:13:21.748906  2825 net.cpp:408] conv2_1 -> conv2_1
I0907 18:13:21.749636  2825 net.cpp:150] Setting up conv2_1
I0907 18:13:21.749646  2825 net.cpp:157] Top shape: 1 128 150 150 (2880000)
I0907 18:13:21.749650  2825 net.cpp:165] Memory required for data: 118080064
I0907 18:13:21.749660  2825 layer_factory.hpp:77] Creating layer relu2_1
I0907 18:13:21.749670  2825 net.cpp:100] Creating Layer relu2_1
I0907 18:13:21.749675  2825 net.cpp:434] relu2_1 <- conv2_1
I0907 18:13:21.749680  2825 net.cpp:395] relu2_1 -> conv2_1 (in-place)
I0907 18:13:21.749688  2825 net.cpp:150] Setting up relu2_1
I0907 18:13:21.749696  2825 net.cpp:157] Top shape: 1 128 150 150 (2880000)
I0907 18:13:21.749699  2825 net.cpp:165] Memory required for data: 129600064
I0907 18:13:21.749704  2825 layer_factory.hpp:77] Creating layer conv2_2
I0907 18:13:21.749714  2825 net.cpp:100] Creating Layer conv2_2
I0907 18:13:21.749719  2825 net.cpp:434] conv2_2 <- conv2_1
I0907 18:13:21.749727  2825 net.cpp:408] conv2_2 -> conv2_2
I0907 18:13:21.751044  2825 net.cpp:150] Setting up conv2_2
I0907 18:13:21.751055  2825 net.cpp:157] Top shape: 1 128 150 150 (2880000)
I0907 18:13:21.751057  2825 net.cpp:165] Memory required for data: 141120064
I0907 18:13:21.751065  2825 layer_factory.hpp:77] Creating layer relu2_2
I0907 18:13:21.751071  2825 net.cpp:100] Creating Layer relu2_2
I0907 18:13:21.751075  2825 net.cpp:434] relu2_2 <- conv2_2
I0907 18:13:21.751080  2825 net.cpp:395] relu2_2 -> conv2_2 (in-place)
I0907 18:13:21.751086  2825 net.cpp:150] Setting up relu2_2
I0907 18:13:21.751090  2825 net.cpp:157] Top shape: 1 128 150 150 (2880000)
I0907 18:13:21.751091  2825 net.cpp:165] Memory required for data: 152640064
I0907 18:13:21.751092  2825 layer_factory.hpp:77] Creating layer pool2
I0907 18:13:21.751096  2825 net.cpp:100] Creating Layer pool2
I0907 18:13:21.751108  2825 net.cpp:434] pool2 <- conv2_2
I0907 18:13:21.751113  2825 net.cpp:408] pool2 -> pool2
I0907 18:13:21.751144  2825 net.cpp:150] Setting up pool2
I0907 18:13:21.751148  2825 net.cpp:157] Top shape: 1 128 75 75 (720000)
I0907 18:13:21.751149  2825 net.cpp:165] Memory required for data: 155520064
I0907 18:13:21.751152  2825 layer_factory.hpp:77] Creating layer conv3_1
I0907 18:13:21.751157  2825 net.cpp:100] Creating Layer conv3_1
I0907 18:13:21.751160  2825 net.cpp:434] conv3_1 <- pool2
I0907 18:13:21.751163  2825 net.cpp:408] conv3_1 -> conv3_1
I0907 18:13:21.752991  2825 net.cpp:150] Setting up conv3_1
I0907 18:13:21.753002  2825 net.cpp:157] Top shape: 1 256 75 75 (1440000)
I0907 18:13:21.753005  2825 net.cpp:165] Memory required for data: 161280064
I0907 18:13:21.753012  2825 layer_factory.hpp:77] Creating layer relu3_1
I0907 18:13:21.753017  2825 net.cpp:100] Creating Layer relu3_1
I0907 18:13:21.753021  2825 net.cpp:434] relu3_1 <- conv3_1
I0907 18:13:21.753023  2825 net.cpp:395] relu3_1 -> conv3_1 (in-place)
I0907 18:13:21.753028  2825 net.cpp:150] Setting up relu3_1
I0907 18:13:21.753033  2825 net.cpp:157] Top shape: 1 256 75 75 (1440000)
I0907 18:13:21.753036  2825 net.cpp:165] Memory required for data: 167040064
I0907 18:13:21.753039  2825 layer_factory.hpp:77] Creating layer conv3_2
I0907 18:13:21.753048  2825 net.cpp:100] Creating Layer conv3_2
I0907 18:13:21.753053  2825 net.cpp:434] conv3_2 <- conv3_1
I0907 18:13:21.753058  2825 net.cpp:408] conv3_2 -> conv3_2
I0907 18:13:21.756423  2825 net.cpp:150] Setting up conv3_2
I0907 18:13:21.756443  2825 net.cpp:157] Top shape: 1 256 75 75 (1440000)
I0907 18:13:21.756446  2825 net.cpp:165] Memory required for data: 172800064
I0907 18:13:21.756451  2825 layer_factory.hpp:77] Creating layer relu3_2
I0907 18:13:21.756458  2825 net.cpp:100] Creating Layer relu3_2
I0907 18:13:21.756461  2825 net.cpp:434] relu3_2 <- conv3_2
I0907 18:13:21.756469  2825 net.cpp:395] relu3_2 -> conv3_2 (in-place)
I0907 18:13:21.756476  2825 net.cpp:150] Setting up relu3_2
I0907 18:13:21.756481  2825 net.cpp:157] Top shape: 1 256 75 75 (1440000)
I0907 18:13:21.756484  2825 net.cpp:165] Memory required for data: 178560064
I0907 18:13:21.756489  2825 layer_factory.hpp:77] Creating layer conv3_3
I0907 18:13:21.756503  2825 net.cpp:100] Creating Layer conv3_3
I0907 18:13:21.756507  2825 net.cpp:434] conv3_3 <- conv3_2
I0907 18:13:21.756511  2825 net.cpp:408] conv3_3 -> conv3_3
I0907 18:13:21.759959  2825 net.cpp:150] Setting up conv3_3
I0907 18:13:21.759979  2825 net.cpp:157] Top shape: 1 256 75 75 (1440000)
I0907 18:13:21.759981  2825 net.cpp:165] Memory required for data: 184320064
I0907 18:13:21.759989  2825 layer_factory.hpp:77] Creating layer relu3_3
I0907 18:13:21.759997  2825 net.cpp:100] Creating Layer relu3_3
I0907 18:13:21.760002  2825 net.cpp:434] relu3_3 <- conv3_3
I0907 18:13:21.760010  2825 net.cpp:395] relu3_3 -> conv3_3 (in-place)
I0907 18:13:21.760018  2825 net.cpp:150] Setting up relu3_3
I0907 18:13:21.760023  2825 net.cpp:157] Top shape: 1 256 75 75 (1440000)
I0907 18:13:21.760025  2825 net.cpp:165] Memory required for data: 190080064
I0907 18:13:21.760028  2825 layer_factory.hpp:77] Creating layer pool3
I0907 18:13:21.760035  2825 net.cpp:100] Creating Layer pool3
I0907 18:13:21.760037  2825 net.cpp:434] pool3 <- conv3_3
I0907 18:13:21.760043  2825 net.cpp:408] pool3 -> pool3
I0907 18:13:21.760078  2825 net.cpp:150] Setting up pool3
I0907 18:13:21.760083  2825 net.cpp:157] Top shape: 1 256 38 38 (369664)
I0907 18:13:21.760085  2825 net.cpp:165] Memory required for data: 191558720
I0907 18:13:21.760088  2825 layer_factory.hpp:77] Creating layer conv4_1
I0907 18:13:21.760098  2825 net.cpp:100] Creating Layer conv4_1
I0907 18:13:21.760102  2825 net.cpp:434] conv4_1 <- pool3
I0907 18:13:21.760107  2825 net.cpp:408] conv4_1 -> conv4_1
I0907 18:13:21.766636  2825 net.cpp:150] Setting up conv4_1
I0907 18:13:21.766659  2825 net.cpp:157] Top shape: 1 512 38 38 (739328)
I0907 18:13:21.766662  2825 net.cpp:165] Memory required for data: 194516032
I0907 18:13:21.766690  2825 layer_factory.hpp:77] Creating layer relu4_1
I0907 18:13:21.766701  2825 net.cpp:100] Creating Layer relu4_1
I0907 18:13:21.766707  2825 net.cpp:434] relu4_1 <- conv4_1
I0907 18:13:21.766713  2825 net.cpp:395] relu4_1 -> conv4_1 (in-place)
I0907 18:13:21.766726  2825 net.cpp:150] Setting up relu4_1
I0907 18:13:21.766729  2825 net.cpp:157] Top shape: 1 512 38 38 (739328)
I0907 18:13:21.766731  2825 net.cpp:165] Memory required for data: 197473344
I0907 18:13:21.766733  2825 layer_factory.hpp:77] Creating layer conv4_2
I0907 18:13:21.766741  2825 net.cpp:100] Creating Layer conv4_2
I0907 18:13:21.766742  2825 net.cpp:434] conv4_2 <- conv4_1
I0907 18:13:21.766746  2825 net.cpp:408] conv4_2 -> conv4_2
I0907 18:13:21.779206  2825 net.cpp:150] Setting up conv4_2
I0907 18:13:21.779242  2825 net.cpp:157] Top shape: 1 512 38 38 (739328)
I0907 18:13:21.779244  2825 net.cpp:165] Memory required for data: 200430656
I0907 18:13:21.779255  2825 layer_factory.hpp:77] Creating layer relu4_2
I0907 18:13:21.779266  2825 net.cpp:100] Creating Layer relu4_2
I0907 18:13:21.779271  2825 net.cpp:434] relu4_2 <- conv4_2
I0907 18:13:21.779278  2825 net.cpp:395] relu4_2 -> conv4_2 (in-place)
I0907 18:13:21.779289  2825 net.cpp:150] Setting up relu4_2
I0907 18:13:21.779292  2825 net.cpp:157] Top shape: 1 512 38 38 (739328)
I0907 18:13:21.779294  2825 net.cpp:165] Memory required for data: 203387968
I0907 18:13:21.779297  2825 layer_factory.hpp:77] Creating layer conv4_3
I0907 18:13:21.779307  2825 net.cpp:100] Creating Layer conv4_3
I0907 18:13:21.779310  2825 net.cpp:434] conv4_3 <- conv4_2
I0907 18:13:21.779315  2825 net.cpp:408] conv4_3 -> conv4_3
I0907 18:13:21.791610  2825 net.cpp:150] Setting up conv4_3
I0907 18:13:21.791646  2825 net.cpp:157] Top shape: 1 512 38 38 (739328)
I0907 18:13:21.791647  2825 net.cpp:165] Memory required for data: 206345280
I0907 18:13:21.791654  2825 layer_factory.hpp:77] Creating layer relu4_3
I0907 18:13:21.791663  2825 net.cpp:100] Creating Layer relu4_3
I0907 18:13:21.791669  2825 net.cpp:434] relu4_3 <- conv4_3
I0907 18:13:21.791676  2825 net.cpp:395] relu4_3 -> conv4_3 (in-place)
I0907 18:13:21.791683  2825 net.cpp:150] Setting up relu4_3
I0907 18:13:21.791698  2825 net.cpp:157] Top shape: 1 512 38 38 (739328)
I0907 18:13:21.791702  2825 net.cpp:165] Memory required for data: 209302592
I0907 18:13:21.791704  2825 layer_factory.hpp:77] Creating layer conv4_3_relu4_3_0_split
I0907 18:13:21.791709  2825 net.cpp:100] Creating Layer conv4_3_relu4_3_0_split
I0907 18:13:21.791712  2825 net.cpp:434] conv4_3_relu4_3_0_split <- conv4_3
I0907 18:13:21.791715  2825 net.cpp:408] conv4_3_relu4_3_0_split -> conv4_3_relu4_3_0_split_0
I0907 18:13:21.791720  2825 net.cpp:408] conv4_3_relu4_3_0_split -> conv4_3_relu4_3_0_split_1
I0907 18:13:21.791767  2825 net.cpp:150] Setting up conv4_3_relu4_3_0_split
I0907 18:13:21.791780  2825 net.cpp:157] Top shape: 1 512 38 38 (739328)
I0907 18:13:21.791784  2825 net.cpp:157] Top shape: 1 512 38 38 (739328)
I0907 18:13:21.791785  2825 net.cpp:165] Memory required for data: 215217216
I0907 18:13:21.791786  2825 layer_factory.hpp:77] Creating layer pool4
I0907 18:13:21.791801  2825 net.cpp:100] Creating Layer pool4
I0907 18:13:21.791803  2825 net.cpp:434] pool4 <- conv4_3_relu4_3_0_split_0
I0907 18:13:21.791807  2825 net.cpp:408] pool4 -> pool4
I0907 18:13:21.791854  2825 net.cpp:150] Setting up pool4
I0907 18:13:21.791858  2825 net.cpp:157] Top shape: 1 512 19 19 (184832)
I0907 18:13:21.791860  2825 net.cpp:165] Memory required for data: 215956544
I0907 18:13:21.791862  2825 layer_factory.hpp:77] Creating layer conv5_1
I0907 18:13:21.791879  2825 net.cpp:100] Creating Layer conv5_1
I0907 18:13:21.791882  2825 net.cpp:434] conv5_1 <- pool4
I0907 18:13:21.791887  2825 net.cpp:408] conv5_1 -> conv5_1
I0907 18:13:21.804503  2825 net.cpp:150] Setting up conv5_1
I0907 18:13:21.804538  2825 net.cpp:157] Top shape: 1 512 19 19 (184832)
I0907 18:13:21.804543  2825 net.cpp:165] Memory required for data: 216695872
I0907 18:13:21.804548  2825 layer_factory.hpp:77] Creating layer relu5_1
I0907 18:13:21.804584  2825 net.cpp:100] Creating Layer relu5_1
I0907 18:13:21.804589  2825 net.cpp:434] relu5_1 <- conv5_1
I0907 18:13:21.804594  2825 net.cpp:395] relu5_1 -> conv5_1 (in-place)
I0907 18:13:21.804602  2825 net.cpp:150] Setting up relu5_1
I0907 18:13:21.804606  2825 net.cpp:157] Top shape: 1 512 19 19 (184832)
I0907 18:13:21.804608  2825 net.cpp:165] Memory required for data: 217435200
I0907 18:13:21.804610  2825 layer_factory.hpp:77] Creating layer conv5_2
I0907 18:13:21.804617  2825 net.cpp:100] Creating Layer conv5_2
I0907 18:13:21.804621  2825 net.cpp:434] conv5_2 <- conv5_1
I0907 18:13:21.804625  2825 net.cpp:408] conv5_2 -> conv5_2
I0907 18:13:21.816977  2825 net.cpp:150] Setting up conv5_2
I0907 18:13:21.817011  2825 net.cpp:157] Top shape: 1 512 19 19 (184832)
I0907 18:13:21.817014  2825 net.cpp:165] Memory required for data: 218174528
I0907 18:13:21.817023  2825 layer_factory.hpp:77] Creating layer relu5_2
I0907 18:13:21.817031  2825 net.cpp:100] Creating Layer relu5_2
I0907 18:13:21.817036  2825 net.cpp:434] relu5_2 <- conv5_2
I0907 18:13:21.817044  2825 net.cpp:395] relu5_2 -> conv5_2 (in-place)
I0907 18:13:21.817054  2825 net.cpp:150] Setting up relu5_2
I0907 18:13:21.817059  2825 net.cpp:157] Top shape: 1 512 19 19 (184832)
I0907 18:13:21.817061  2825 net.cpp:165] Memory required for data: 218913856
I0907 18:13:21.817065  2825 layer_factory.hpp:77] Creating layer conv5_3
I0907 18:13:21.817085  2825 net.cpp:100] Creating Layer conv5_3
I0907 18:13:21.817090  2825 net.cpp:434] conv5_3 <- conv5_2
I0907 18:13:21.817095  2825 net.cpp:408] conv5_3 -> conv5_3
I0907 18:13:21.829448  2825 net.cpp:150] Setting up conv5_3
I0907 18:13:21.829483  2825 net.cpp:157] Top shape: 1 512 19 19 (184832)
I0907 18:13:21.829485  2825 net.cpp:165] Memory required for data: 219653184
I0907 18:13:21.829491  2825 layer_factory.hpp:77] Creating layer relu5_3
I0907 18:13:21.829514  2825 net.cpp:100] Creating Layer relu5_3
I0907 18:13:21.829519  2825 net.cpp:434] relu5_3 <- conv5_3
I0907 18:13:21.829524  2825 net.cpp:395] relu5_3 -> conv5_3 (in-place)
I0907 18:13:21.829531  2825 net.cpp:150] Setting up relu5_3
I0907 18:13:21.829537  2825 net.cpp:157] Top shape: 1 512 19 19 (184832)
I0907 18:13:21.829540  2825 net.cpp:165] Memory required for data: 220392512
I0907 18:13:21.829542  2825 layer_factory.hpp:77] Creating layer pool5
I0907 18:13:21.829550  2825 net.cpp:100] Creating Layer pool5
I0907 18:13:21.829552  2825 net.cpp:434] pool5 <- conv5_3
I0907 18:13:21.829558  2825 net.cpp:408] pool5 -> pool5
I0907 18:13:21.829601  2825 net.cpp:150] Setting up pool5
I0907 18:13:21.829605  2825 net.cpp:157] Top shape: 1 512 19 19 (184832)
I0907 18:13:21.829607  2825 net.cpp:165] Memory required for data: 221131840
I0907 18:13:21.829619  2825 layer_factory.hpp:77] Creating layer fc6
I0907 18:13:21.829627  2825 net.cpp:100] Creating Layer fc6
I0907 18:13:21.829629  2825 net.cpp:434] fc6 <- pool5
I0907 18:13:21.829635  2825 net.cpp:408] fc6 -> fc6
I0907 18:13:21.854153  2825 net.cpp:150] Setting up fc6
I0907 18:13:21.854179  2825 net.cpp:157] Top shape: 1 1024 19 19 (369664)
I0907 18:13:21.854182  2825 net.cpp:165] Memory required for data: 222610496
I0907 18:13:21.854188  2825 layer_factory.hpp:77] Creating layer relu6
I0907 18:13:21.854197  2825 net.cpp:100] Creating Layer relu6
I0907 18:13:21.854202  2825 net.cpp:434] relu6 <- fc6
I0907 18:13:21.854209  2825 net.cpp:395] relu6 -> fc6 (in-place)
I0907 18:13:21.854218  2825 net.cpp:150] Setting up relu6
I0907 18:13:21.854224  2825 net.cpp:157] Top shape: 1 1024 19 19 (369664)
I0907 18:13:21.854230  2825 net.cpp:165] Memory required for data: 224089152
I0907 18:13:21.854233  2825 layer_factory.hpp:77] Creating layer fc7
I0907 18:13:21.854245  2825 net.cpp:100] Creating Layer fc7
I0907 18:13:21.854249  2825 net.cpp:434] fc7 <- fc6
I0907 18:13:21.854254  2825 net.cpp:408] fc7 -> fc7
I0907 18:13:21.859892  2825 net.cpp:150] Setting up fc7
I0907 18:13:21.859922  2825 net.cpp:157] Top shape: 1 1024 19 19 (369664)
I0907 18:13:21.859925  2825 net.cpp:165] Memory required for data: 225567808
I0907 18:13:21.859951  2825 layer_factory.hpp:77] Creating layer relu7
I0907 18:13:21.859961  2825 net.cpp:100] Creating Layer relu7
I0907 18:13:21.859964  2825 net.cpp:434] relu7 <- fc7
I0907 18:13:21.859972  2825 net.cpp:395] relu7 -> fc7 (in-place)
I0907 18:13:21.859980  2825 net.cpp:150] Setting up relu7
I0907 18:13:21.859983  2825 net.cpp:157] Top shape: 1 1024 19 19 (369664)
I0907 18:13:21.859985  2825 net.cpp:165] Memory required for data: 227046464
I0907 18:13:21.859988  2825 layer_factory.hpp:77] Creating layer fc7_relu7_0_split
I0907 18:13:21.859995  2825 net.cpp:100] Creating Layer fc7_relu7_0_split
I0907 18:13:21.859999  2825 net.cpp:434] fc7_relu7_0_split <- fc7
I0907 18:13:21.860004  2825 net.cpp:408] fc7_relu7_0_split -> fc7_relu7_0_split_0
I0907 18:13:21.860010  2825 net.cpp:408] fc7_relu7_0_split -> fc7_relu7_0_split_1
I0907 18:13:21.860024  2825 net.cpp:408] fc7_relu7_0_split -> fc7_relu7_0_split_2
I0907 18:13:21.860030  2825 net.cpp:408] fc7_relu7_0_split -> fc7_relu7_0_split_3
I0907 18:13:21.860096  2825 net.cpp:150] Setting up fc7_relu7_0_split
I0907 18:13:21.860111  2825 net.cpp:157] Top shape: 1 1024 19 19 (369664)
I0907 18:13:21.860114  2825 net.cpp:157] Top shape: 1 1024 19 19 (369664)
I0907 18:13:21.860117  2825 net.cpp:157] Top shape: 1 1024 19 19 (369664)
I0907 18:13:21.860119  2825 net.cpp:157] Top shape: 1 1024 19 19 (369664)
I0907 18:13:21.860121  2825 net.cpp:165] Memory required for data: 232961088
I0907 18:13:21.860123  2825 layer_factory.hpp:77] Creating layer conv6_1
I0907 18:13:21.860133  2825 net.cpp:100] Creating Layer conv6_1
I0907 18:13:21.860136  2825 net.cpp:434] conv6_1 <- fc7_relu7_0_split_0
I0907 18:13:21.860146  2825 net.cpp:408] conv6_1 -> conv6_1
I0907 18:13:21.861951  2825 net.cpp:150] Setting up conv6_1
I0907 18:13:21.861963  2825 net.cpp:157] Top shape: 1 256 19 19 (92416)
I0907 18:13:21.861966  2825 net.cpp:165] Memory required for data: 233330752
I0907 18:13:21.861974  2825 layer_factory.hpp:77] Creating layer conv6_1_relu
I0907 18:13:21.861981  2825 net.cpp:100] Creating Layer conv6_1_relu
I0907 18:13:21.861987  2825 net.cpp:434] conv6_1_relu <- conv6_1
I0907 18:13:21.861992  2825 net.cpp:395] conv6_1_relu -> conv6_1 (in-place)
I0907 18:13:21.861999  2825 net.cpp:150] Setting up conv6_1_relu
I0907 18:13:21.862004  2825 net.cpp:157] Top shape: 1 256 19 19 (92416)
I0907 18:13:21.862009  2825 net.cpp:165] Memory required for data: 233700416
I0907 18:13:21.862010  2825 layer_factory.hpp:77] Creating layer conv6_2
I0907 18:13:21.862018  2825 net.cpp:100] Creating Layer conv6_2
I0907 18:13:21.862020  2825 net.cpp:434] conv6_2 <- conv6_1
I0907 18:13:21.862026  2825 net.cpp:408] conv6_2 -> conv6_2
I0907 18:13:21.868511  2825 net.cpp:150] Setting up conv6_2
I0907 18:13:21.868544  2825 net.cpp:157] Top shape: 1 512 10 10 (51200)
I0907 18:13:21.868547  2825 net.cpp:165] Memory required for data: 233905216
I0907 18:13:21.868562  2825 layer_factory.hpp:77] Creating layer conv6_2_relu
I0907 18:13:21.868582  2825 net.cpp:100] Creating Layer conv6_2_relu
I0907 18:13:21.868589  2825 net.cpp:434] conv6_2_relu <- conv6_2
I0907 18:13:21.868597  2825 net.cpp:395] conv6_2_relu -> conv6_2 (in-place)
I0907 18:13:21.868604  2825 net.cpp:150] Setting up conv6_2_relu
I0907 18:13:21.868610  2825 net.cpp:157] Top shape: 1 512 10 10 (51200)
I0907 18:13:21.868615  2825 net.cpp:165] Memory required for data: 234110016
I0907 18:13:21.868618  2825 layer_factory.hpp:77] Creating layer conv6_2_conv6_2_relu_0_split
I0907 18:13:21.868621  2825 net.cpp:100] Creating Layer conv6_2_conv6_2_relu_0_split
I0907 18:13:21.868624  2825 net.cpp:434] conv6_2_conv6_2_relu_0_split <- conv6_2
I0907 18:13:21.868631  2825 net.cpp:408] conv6_2_conv6_2_relu_0_split -> conv6_2_conv6_2_relu_0_split_0
I0907 18:13:21.868639  2825 net.cpp:408] conv6_2_conv6_2_relu_0_split -> conv6_2_conv6_2_relu_0_split_1
I0907 18:13:21.868644  2825 net.cpp:408] conv6_2_conv6_2_relu_0_split -> conv6_2_conv6_2_relu_0_split_2
I0907 18:13:21.868662  2825 net.cpp:408] conv6_2_conv6_2_relu_0_split -> conv6_2_conv6_2_relu_0_split_3
I0907 18:13:21.868752  2825 net.cpp:150] Setting up conv6_2_conv6_2_relu_0_split
I0907 18:13:21.868758  2825 net.cpp:157] Top shape: 1 512 10 10 (51200)
I0907 18:13:21.868760  2825 net.cpp:157] Top shape: 1 512 10 10 (51200)
I0907 18:13:21.868774  2825 net.cpp:157] Top shape: 1 512 10 10 (51200)
I0907 18:13:21.868777  2825 net.cpp:157] Top shape: 1 512 10 10 (51200)
I0907 18:13:21.868779  2825 net.cpp:165] Memory required for data: 234929216
I0907 18:13:21.868782  2825 layer_factory.hpp:77] Creating layer conv7_1
I0907 18:13:21.868791  2825 net.cpp:100] Creating Layer conv7_1
I0907 18:13:21.868794  2825 net.cpp:434] conv7_1 <- conv6_2_conv6_2_relu_0_split_0
I0907 18:13:21.868800  2825 net.cpp:408] conv7_1 -> conv7_1
I0907 18:13:21.869691  2825 net.cpp:150] Setting up conv7_1
I0907 18:13:21.869701  2825 net.cpp:157] Top shape: 1 128 10 10 (12800)
I0907 18:13:21.869714  2825 net.cpp:165] Memory required for data: 234980416
I0907 18:13:21.869717  2825 layer_factory.hpp:77] Creating layer conv7_1_relu
I0907 18:13:21.869734  2825 net.cpp:100] Creating Layer conv7_1_relu
I0907 18:13:21.869736  2825 net.cpp:434] conv7_1_relu <- conv7_1
I0907 18:13:21.869742  2825 net.cpp:395] conv7_1_relu -> conv7_1 (in-place)
I0907 18:13:21.869751  2825 net.cpp:150] Setting up conv7_1_relu
I0907 18:13:21.869756  2825 net.cpp:157] Top shape: 1 128 10 10 (12800)
I0907 18:13:21.869760  2825 net.cpp:165] Memory required for data: 235031616
I0907 18:13:21.869765  2825 layer_factory.hpp:77] Creating layer conv7_2
I0907 18:13:21.869774  2825 net.cpp:100] Creating Layer conv7_2
I0907 18:13:21.869786  2825 net.cpp:434] conv7_2 <- conv7_1
I0907 18:13:21.869792  2825 net.cpp:408] conv7_2 -> conv7_2
I0907 18:13:21.871852  2825 net.cpp:150] Setting up conv7_2
I0907 18:13:21.871861  2825 net.cpp:157] Top shape: 1 256 5 5 (6400)
I0907 18:13:21.871865  2825 net.cpp:165] Memory required for data: 235057216
I0907 18:13:21.871868  2825 layer_factory.hpp:77] Creating layer conv7_2_relu
I0907 18:13:21.871873  2825 net.cpp:100] Creating Layer conv7_2_relu
I0907 18:13:21.871877  2825 net.cpp:434] conv7_2_relu <- conv7_2
I0907 18:13:21.871883  2825 net.cpp:395] conv7_2_relu -> conv7_2 (in-place)
I0907 18:13:21.871891  2825 net.cpp:150] Setting up conv7_2_relu
I0907 18:13:21.871896  2825 net.cpp:157] Top shape: 1 256 5 5 (6400)
I0907 18:13:21.871901  2825 net.cpp:165] Memory required for data: 235082816
I0907 18:13:21.871903  2825 layer_factory.hpp:77] Creating layer conv7_2_conv7_2_relu_0_split
I0907 18:13:21.871911  2825 net.cpp:100] Creating Layer conv7_2_conv7_2_relu_0_split
I0907 18:13:21.871915  2825 net.cpp:434] conv7_2_conv7_2_relu_0_split <- conv7_2
I0907 18:13:21.871923  2825 net.cpp:408] conv7_2_conv7_2_relu_0_split -> conv7_2_conv7_2_relu_0_split_0
I0907 18:13:21.871930  2825 net.cpp:408] conv7_2_conv7_2_relu_0_split -> conv7_2_conv7_2_relu_0_split_1
I0907 18:13:21.871935  2825 net.cpp:408] conv7_2_conv7_2_relu_0_split -> conv7_2_conv7_2_relu_0_split_2
I0907 18:13:21.871942  2825 net.cpp:408] conv7_2_conv7_2_relu_0_split -> conv7_2_conv7_2_relu_0_split_3
I0907 18:13:21.871995  2825 net.cpp:150] Setting up conv7_2_conv7_2_relu_0_split
I0907 18:13:21.872000  2825 net.cpp:157] Top shape: 1 256 5 5 (6400)
I0907 18:13:21.872002  2825 net.cpp:157] Top shape: 1 256 5 5 (6400)
I0907 18:13:21.872005  2825 net.cpp:157] Top shape: 1 256 5 5 (6400)
I0907 18:13:21.872007  2825 net.cpp:157] Top shape: 1 256 5 5 (6400)
I0907 18:13:21.872009  2825 net.cpp:165] Memory required for data: 235185216
I0907 18:13:21.872011  2825 layer_factory.hpp:77] Creating layer conv8_1
I0907 18:13:21.872018  2825 net.cpp:100] Creating Layer conv8_1
I0907 18:13:21.872021  2825 net.cpp:434] conv8_1 <- conv7_2_conv7_2_relu_0_split_0
I0907 18:13:21.872027  2825 net.cpp:408] conv8_1 -> conv8_1
I0907 18:13:21.872364  2825 net.cpp:150] Setting up conv8_1
I0907 18:13:21.872370  2825 net.cpp:157] Top shape: 1 128 5 5 (3200)
I0907 18:13:21.872375  2825 net.cpp:165] Memory required for data: 235198016
I0907 18:13:21.872381  2825 layer_factory.hpp:77] Creating layer conv8_1_relu
I0907 18:13:21.872395  2825 net.cpp:100] Creating Layer conv8_1_relu
I0907 18:13:21.872398  2825 net.cpp:434] conv8_1_relu <- conv8_1
I0907 18:13:21.872401  2825 net.cpp:395] conv8_1_relu -> conv8_1 (in-place)
I0907 18:13:21.872406  2825 net.cpp:150] Setting up conv8_1_relu
I0907 18:13:21.872409  2825 net.cpp:157] Top shape: 1 128 5 5 (3200)
I0907 18:13:21.872411  2825 net.cpp:165] Memory required for data: 235210816
I0907 18:13:21.872413  2825 layer_factory.hpp:77] Creating layer conv8_2
I0907 18:13:21.872421  2825 net.cpp:100] Creating Layer conv8_2
I0907 18:13:21.872424  2825 net.cpp:434] conv8_2 <- conv8_1
I0907 18:13:21.872431  2825 net.cpp:408] conv8_2 -> conv8_2
I0907 18:13:21.874249  2825 net.cpp:150] Setting up conv8_2
I0907 18:13:21.874260  2825 net.cpp:157] Top shape: 1 256 3 3 (2304)
I0907 18:13:21.874263  2825 net.cpp:165] Memory required for data: 235220032
I0907 18:13:21.874267  2825 layer_factory.hpp:77] Creating layer conv8_2_relu
I0907 18:13:21.874272  2825 net.cpp:100] Creating Layer conv8_2_relu
I0907 18:13:21.874275  2825 net.cpp:434] conv8_2_relu <- conv8_2
I0907 18:13:21.874279  2825 net.cpp:395] conv8_2_relu -> conv8_2 (in-place)
I0907 18:13:21.874287  2825 net.cpp:150] Setting up conv8_2_relu
I0907 18:13:21.874294  2825 net.cpp:157] Top shape: 1 256 3 3 (2304)
I0907 18:13:21.874297  2825 net.cpp:165] Memory required for data: 235229248
I0907 18:13:21.874301  2825 layer_factory.hpp:77] Creating layer conv8_2_conv8_2_relu_0_split
I0907 18:13:21.874308  2825 net.cpp:100] Creating Layer conv8_2_conv8_2_relu_0_split
I0907 18:13:21.874311  2825 net.cpp:434] conv8_2_conv8_2_relu_0_split <- conv8_2
I0907 18:13:21.874316  2825 net.cpp:408] conv8_2_conv8_2_relu_0_split -> conv8_2_conv8_2_relu_0_split_0
I0907 18:13:21.874322  2825 net.cpp:408] conv8_2_conv8_2_relu_0_split -> conv8_2_conv8_2_relu_0_split_1
I0907 18:13:21.874327  2825 net.cpp:408] conv8_2_conv8_2_relu_0_split -> conv8_2_conv8_2_relu_0_split_2
I0907 18:13:21.874332  2825 net.cpp:408] conv8_2_conv8_2_relu_0_split -> conv8_2_conv8_2_relu_0_split_3
I0907 18:13:21.874385  2825 net.cpp:150] Setting up conv8_2_conv8_2_relu_0_split
I0907 18:13:21.874392  2825 net.cpp:157] Top shape: 1 256 3 3 (2304)
I0907 18:13:21.874394  2825 net.cpp:157] Top shape: 1 256 3 3 (2304)
I0907 18:13:21.874397  2825 net.cpp:157] Top shape: 1 256 3 3 (2304)
I0907 18:13:21.874399  2825 net.cpp:157] Top shape: 1 256 3 3 (2304)
I0907 18:13:21.874400  2825 net.cpp:165] Memory required for data: 235266112
I0907 18:13:21.874403  2825 layer_factory.hpp:77] Creating layer conv9_1
I0907 18:13:21.874414  2825 net.cpp:100] Creating Layer conv9_1
I0907 18:13:21.874419  2825 net.cpp:434] conv9_1 <- conv8_2_conv8_2_relu_0_split_0
I0907 18:13:21.874426  2825 net.cpp:408] conv9_1 -> conv9_1
I0907 18:13:21.874758  2825 net.cpp:150] Setting up conv9_1
I0907 18:13:21.874763  2825 net.cpp:157] Top shape: 1 128 3 3 (1152)
I0907 18:13:21.874765  2825 net.cpp:165] Memory required for data: 235270720
I0907 18:13:21.874769  2825 layer_factory.hpp:77] Creating layer conv9_1_relu
I0907 18:13:21.874775  2825 net.cpp:100] Creating Layer conv9_1_relu
I0907 18:13:21.874778  2825 net.cpp:434] conv9_1_relu <- conv9_1
I0907 18:13:21.874781  2825 net.cpp:395] conv9_1_relu -> conv9_1 (in-place)
I0907 18:13:21.874788  2825 net.cpp:150] Setting up conv9_1_relu
I0907 18:13:21.874794  2825 net.cpp:157] Top shape: 1 128 3 3 (1152)
I0907 18:13:21.874799  2825 net.cpp:165] Memory required for data: 235275328
I0907 18:13:21.874802  2825 layer_factory.hpp:77] Creating layer conv9_2
I0907 18:13:21.874810  2825 net.cpp:100] Creating Layer conv9_2
I0907 18:13:21.874814  2825 net.cpp:434] conv9_2 <- conv9_1
I0907 18:13:21.874819  2825 net.cpp:408] conv9_2 -> conv9_2
I0907 18:13:21.876626  2825 net.cpp:150] Setting up conv9_2
I0907 18:13:21.876636  2825 net.cpp:157] Top shape: 1 256 1 1 (256)
I0907 18:13:21.876638  2825 net.cpp:165] Memory required for data: 235276352
I0907 18:13:21.876642  2825 layer_factory.hpp:77] Creating layer conv9_2_relu
I0907 18:13:21.876651  2825 net.cpp:100] Creating Layer conv9_2_relu
I0907 18:13:21.876664  2825 net.cpp:434] conv9_2_relu <- conv9_2
I0907 18:13:21.876672  2825 net.cpp:395] conv9_2_relu -> conv9_2 (in-place)
I0907 18:13:21.876679  2825 net.cpp:150] Setting up conv9_2_relu
I0907 18:13:21.876685  2825 net.cpp:157] Top shape: 1 256 1 1 (256)
I0907 18:13:21.876689  2825 net.cpp:165] Memory required for data: 235277376
I0907 18:13:21.876693  2825 layer_factory.hpp:77] Creating layer conv9_2_conv9_2_relu_0_split
I0907 18:13:21.876699  2825 net.cpp:100] Creating Layer conv9_2_conv9_2_relu_0_split
I0907 18:13:21.876703  2825 net.cpp:434] conv9_2_conv9_2_relu_0_split <- conv9_2
I0907 18:13:21.876708  2825 net.cpp:408] conv9_2_conv9_2_relu_0_split -> conv9_2_conv9_2_relu_0_split_0
I0907 18:13:21.876715  2825 net.cpp:408] conv9_2_conv9_2_relu_0_split -> conv9_2_conv9_2_relu_0_split_1
I0907 18:13:21.876723  2825 net.cpp:408] conv9_2_conv9_2_relu_0_split -> conv9_2_conv9_2_relu_0_split_2
I0907 18:13:21.876770  2825 net.cpp:150] Setting up conv9_2_conv9_2_relu_0_split
I0907 18:13:21.876775  2825 net.cpp:157] Top shape: 1 256 1 1 (256)
I0907 18:13:21.876780  2825 net.cpp:157] Top shape: 1 256 1 1 (256)
I0907 18:13:21.876785  2825 net.cpp:157] Top shape: 1 256 1 1 (256)
I0907 18:13:21.876790  2825 net.cpp:165] Memory required for data: 235280448
I0907 18:13:21.876793  2825 layer_factory.hpp:77] Creating layer conv4_3_norm
I0907 18:13:21.876801  2825 net.cpp:100] Creating Layer conv4_3_norm
I0907 18:13:21.876806  2825 net.cpp:434] conv4_3_norm <- conv4_3_relu4_3_0_split_1
I0907 18:13:21.876809  2825 net.cpp:408] conv4_3_norm -> conv4_3_norm
I0907 18:13:21.876940  2825 net.cpp:150] Setting up conv4_3_norm
I0907 18:13:21.876945  2825 net.cpp:157] Top shape: 1 512 38 38 (739328)
I0907 18:13:21.876950  2825 net.cpp:165] Memory required for data: 238237760
I0907 18:13:21.876956  2825 layer_factory.hpp:77] Creating layer conv4_3_norm_conv4_3_norm_0_split
I0907 18:13:21.876962  2825 net.cpp:100] Creating Layer conv4_3_norm_conv4_3_norm_0_split
I0907 18:13:21.876965  2825 net.cpp:434] conv4_3_norm_conv4_3_norm_0_split <- conv4_3_norm
I0907 18:13:21.876971  2825 net.cpp:408] conv4_3_norm_conv4_3_norm_0_split -> conv4_3_norm_conv4_3_norm_0_split_0
I0907 18:13:21.876976  2825 net.cpp:408] conv4_3_norm_conv4_3_norm_0_split -> conv4_3_norm_conv4_3_norm_0_split_1
I0907 18:13:21.876981  2825 net.cpp:408] conv4_3_norm_conv4_3_norm_0_split -> conv4_3_norm_conv4_3_norm_0_split_2
I0907 18:13:21.877019  2825 net.cpp:150] Setting up conv4_3_norm_conv4_3_norm_0_split
I0907 18:13:21.877024  2825 net.cpp:157] Top shape: 1 512 38 38 (739328)
I0907 18:13:21.877027  2825 net.cpp:157] Top shape: 1 512 38 38 (739328)
I0907 18:13:21.877029  2825 net.cpp:157] Top shape: 1 512 38 38 (739328)
I0907 18:13:21.877032  2825 net.cpp:165] Memory required for data: 247109696
I0907 18:13:21.877033  2825 layer_factory.hpp:77] Creating layer conv4_3_norm_mbox_loc
I0907 18:13:21.877043  2825 net.cpp:100] Creating Layer conv4_3_norm_mbox_loc
I0907 18:13:21.877048  2825 net.cpp:434] conv4_3_norm_mbox_loc <- conv4_3_norm_conv4_3_norm_0_split_0
I0907 18:13:21.877054  2825 net.cpp:408] conv4_3_norm_mbox_loc -> conv4_3_norm_mbox_loc
I0907 18:13:21.877584  2825 net.cpp:150] Setting up conv4_3_norm_mbox_loc
I0907 18:13:21.877590  2825 net.cpp:157] Top shape: 1 16 38 38 (23104)
I0907 18:13:21.877593  2825 net.cpp:165] Memory required for data: 247202112
I0907 18:13:21.877596  2825 layer_factory.hpp:77] Creating layer conv4_3_norm_mbox_loc_perm
I0907 18:13:21.877601  2825 net.cpp:100] Creating Layer conv4_3_norm_mbox_loc_perm
I0907 18:13:21.877606  2825 net.cpp:434] conv4_3_norm_mbox_loc_perm <- conv4_3_norm_mbox_loc
I0907 18:13:21.877614  2825 net.cpp:408] conv4_3_norm_mbox_loc_perm -> conv4_3_norm_mbox_loc_perm
I0907 18:13:21.877701  2825 net.cpp:150] Setting up conv4_3_norm_mbox_loc_perm
I0907 18:13:21.877706  2825 net.cpp:157] Top shape: 1 38 38 16 (23104)
I0907 18:13:21.877708  2825 net.cpp:165] Memory required for data: 247294528
I0907 18:13:21.877713  2825 layer_factory.hpp:77] Creating layer conv4_3_norm_mbox_loc_flat
I0907 18:13:21.877720  2825 net.cpp:100] Creating Layer conv4_3_norm_mbox_loc_flat
I0907 18:13:21.877730  2825 net.cpp:434] conv4_3_norm_mbox_loc_flat <- conv4_3_norm_mbox_loc_perm
I0907 18:13:21.877735  2825 net.cpp:408] conv4_3_norm_mbox_loc_flat -> conv4_3_norm_mbox_loc_flat
I0907 18:13:21.877766  2825 net.cpp:150] Setting up conv4_3_norm_mbox_loc_flat
I0907 18:13:21.877773  2825 net.cpp:157] Top shape: 1 23104 (23104)
I0907 18:13:21.877774  2825 net.cpp:165] Memory required for data: 247386944
I0907 18:13:21.877776  2825 layer_factory.hpp:77] Creating layer conv4_3_norm_mbox_conf
I0907 18:13:21.877794  2825 net.cpp:100] Creating Layer conv4_3_norm_mbox_conf
I0907 18:13:21.877799  2825 net.cpp:434] conv4_3_norm_mbox_conf <- conv4_3_norm_conv4_3_norm_0_split_1
I0907 18:13:21.877804  2825 net.cpp:408] conv4_3_norm_mbox_conf -> conv4_3_norm_mbox_conf
I0907 18:13:21.880111  2825 net.cpp:150] Setting up conv4_3_norm_mbox_conf
I0907 18:13:21.880121  2825 net.cpp:157] Top shape: 1 84 38 38 (121296)
I0907 18:13:21.880123  2825 net.cpp:165] Memory required for data: 247872128
I0907 18:13:21.880128  2825 layer_factory.hpp:77] Creating layer conv4_3_norm_mbox_conf_perm
I0907 18:13:21.880136  2825 net.cpp:100] Creating Layer conv4_3_norm_mbox_conf_perm
I0907 18:13:21.880138  2825 net.cpp:434] conv4_3_norm_mbox_conf_perm <- conv4_3_norm_mbox_conf
I0907 18:13:21.880144  2825 net.cpp:408] conv4_3_norm_mbox_conf_perm -> conv4_3_norm_mbox_conf_perm
I0907 18:13:21.880230  2825 net.cpp:150] Setting up conv4_3_norm_mbox_conf_perm
I0907 18:13:21.880236  2825 net.cpp:157] Top shape: 1 38 38 84 (121296)
I0907 18:13:21.880241  2825 net.cpp:165] Memory required for data: 248357312
I0907 18:13:21.880245  2825 layer_factory.hpp:77] Creating layer conv4_3_norm_mbox_conf_flat
I0907 18:13:21.880251  2825 net.cpp:100] Creating Layer conv4_3_norm_mbox_conf_flat
I0907 18:13:21.880256  2825 net.cpp:434] conv4_3_norm_mbox_conf_flat <- conv4_3_norm_mbox_conf_perm
I0907 18:13:21.880264  2825 net.cpp:408] conv4_3_norm_mbox_conf_flat -> conv4_3_norm_mbox_conf_flat
I0907 18:13:21.880290  2825 net.cpp:150] Setting up conv4_3_norm_mbox_conf_flat
I0907 18:13:21.880295  2825 net.cpp:157] Top shape: 1 121296 (121296)
I0907 18:13:21.880298  2825 net.cpp:165] Memory required for data: 248842496
I0907 18:13:21.880302  2825 layer_factory.hpp:77] Creating layer conv4_3_norm_mbox_priorbox
I0907 18:13:21.880309  2825 net.cpp:100] Creating Layer conv4_3_norm_mbox_priorbox
I0907 18:13:21.880313  2825 net.cpp:434] conv4_3_norm_mbox_priorbox <- conv4_3_norm_conv4_3_norm_0_split_2
I0907 18:13:21.880317  2825 net.cpp:434] conv4_3_norm_mbox_priorbox <- data_data_0_split_1
I0907 18:13:21.880324  2825 net.cpp:408] conv4_3_norm_mbox_priorbox -> conv4_3_norm_mbox_priorbox
I0907 18:13:21.880349  2825 net.cpp:150] Setting up conv4_3_norm_mbox_priorbox
I0907 18:13:21.880354  2825 net.cpp:157] Top shape: 1 2 23104 (46208)
I0907 18:13:21.880357  2825 net.cpp:165] Memory required for data: 249027328
I0907 18:13:21.880362  2825 layer_factory.hpp:77] Creating layer fc7_mbox_loc
I0907 18:13:21.880372  2825 net.cpp:100] Creating Layer fc7_mbox_loc
I0907 18:13:21.880375  2825 net.cpp:434] fc7_mbox_loc <- fc7_relu7_0_split_1
I0907 18:13:21.880379  2825 net.cpp:408] fc7_mbox_loc -> fc7_mbox_loc
I0907 18:13:21.881871  2825 net.cpp:150] Setting up fc7_mbox_loc
I0907 18:13:21.881881  2825 net.cpp:157] Top shape: 1 24 19 19 (8664)
I0907 18:13:21.881884  2825 net.cpp:165] Memory required for data: 249061984
I0907 18:13:21.881888  2825 layer_factory.hpp:77] Creating layer fc7_mbox_loc_perm
I0907 18:13:21.881894  2825 net.cpp:100] Creating Layer fc7_mbox_loc_perm
I0907 18:13:21.881898  2825 net.cpp:434] fc7_mbox_loc_perm <- fc7_mbox_loc
I0907 18:13:21.881903  2825 net.cpp:408] fc7_mbox_loc_perm -> fc7_mbox_loc_perm
I0907 18:13:21.881984  2825 net.cpp:150] Setting up fc7_mbox_loc_perm
I0907 18:13:21.881989  2825 net.cpp:157] Top shape: 1 19 19 24 (8664)
I0907 18:13:21.881991  2825 net.cpp:165] Memory required for data: 249096640
I0907 18:13:21.881994  2825 layer_factory.hpp:77] Creating layer fc7_mbox_loc_flat
I0907 18:13:21.881999  2825 net.cpp:100] Creating Layer fc7_mbox_loc_flat
I0907 18:13:21.882012  2825 net.cpp:434] fc7_mbox_loc_flat <- fc7_mbox_loc_perm
I0907 18:13:21.882021  2825 net.cpp:408] fc7_mbox_loc_flat -> fc7_mbox_loc_flat
I0907 18:13:21.882046  2825 net.cpp:150] Setting up fc7_mbox_loc_flat
I0907 18:13:21.882051  2825 net.cpp:157] Top shape: 1 8664 (8664)
I0907 18:13:21.882055  2825 net.cpp:165] Memory required for data: 249131296
I0907 18:13:21.882060  2825 layer_factory.hpp:77] Creating layer fc7_mbox_conf
I0907 18:13:21.882071  2825 net.cpp:100] Creating Layer fc7_mbox_conf
I0907 18:13:21.882074  2825 net.cpp:434] fc7_mbox_conf <- fc7_relu7_0_split_2
I0907 18:13:21.882078  2825 net.cpp:408] fc7_mbox_conf -> fc7_mbox_conf
I0907 18:13:21.888376  2825 net.cpp:150] Setting up fc7_mbox_conf
I0907 18:13:21.888398  2825 net.cpp:157] Top shape: 1 126 19 19 (45486)
I0907 18:13:21.888401  2825 net.cpp:165] Memory required for data: 249313240
I0907 18:13:21.888407  2825 layer_factory.hpp:77] Creating layer fc7_mbox_conf_perm
I0907 18:13:21.888417  2825 net.cpp:100] Creating Layer fc7_mbox_conf_perm
I0907 18:13:21.888425  2825 net.cpp:434] fc7_mbox_conf_perm <- fc7_mbox_conf
I0907 18:13:21.888437  2825 net.cpp:408] fc7_mbox_conf_perm -> fc7_mbox_conf_perm
I0907 18:13:21.888528  2825 net.cpp:150] Setting up fc7_mbox_conf_perm
I0907 18:13:21.888535  2825 net.cpp:157] Top shape: 1 19 19 126 (45486)
I0907 18:13:21.888540  2825 net.cpp:165] Memory required for data: 249495184
I0907 18:13:21.888543  2825 layer_factory.hpp:77] Creating layer fc7_mbox_conf_flat
I0907 18:13:21.888548  2825 net.cpp:100] Creating Layer fc7_mbox_conf_flat
I0907 18:13:21.888551  2825 net.cpp:434] fc7_mbox_conf_flat <- fc7_mbox_conf_perm
I0907 18:13:21.888558  2825 net.cpp:408] fc7_mbox_conf_flat -> fc7_mbox_conf_flat
I0907 18:13:21.888582  2825 net.cpp:150] Setting up fc7_mbox_conf_flat
I0907 18:13:21.888588  2825 net.cpp:157] Top shape: 1 45486 (45486)
I0907 18:13:21.888591  2825 net.cpp:165] Memory required for data: 249677128
I0907 18:13:21.888592  2825 layer_factory.hpp:77] Creating layer fc7_mbox_priorbox
I0907 18:13:21.888598  2825 net.cpp:100] Creating Layer fc7_mbox_priorbox
I0907 18:13:21.888602  2825 net.cpp:434] fc7_mbox_priorbox <- fc7_relu7_0_split_3
I0907 18:13:21.888609  2825 net.cpp:434] fc7_mbox_priorbox <- data_data_0_split_2
I0907 18:13:21.888617  2825 net.cpp:408] fc7_mbox_priorbox -> fc7_mbox_priorbox
I0907 18:13:21.888643  2825 net.cpp:150] Setting up fc7_mbox_priorbox
I0907 18:13:21.888650  2825 net.cpp:157] Top shape: 1 2 8664 (17328)
I0907 18:13:21.888655  2825 net.cpp:165] Memory required for data: 249746440
I0907 18:13:21.888659  2825 layer_factory.hpp:77] Creating layer conv6_2_mbox_loc
I0907 18:13:21.888669  2825 net.cpp:100] Creating Layer conv6_2_mbox_loc
I0907 18:13:21.888672  2825 net.cpp:434] conv6_2_mbox_loc <- conv6_2_conv6_2_relu_0_split_1
I0907 18:13:21.888677  2825 net.cpp:408] conv6_2_mbox_loc -> conv6_2_mbox_loc
I0907 18:13:21.889793  2825 net.cpp:150] Setting up conv6_2_mbox_loc
I0907 18:13:21.889803  2825 net.cpp:157] Top shape: 1 24 10 10 (2400)
I0907 18:13:21.889806  2825 net.cpp:165] Memory required for data: 249756040
I0907 18:13:21.889811  2825 layer_factory.hpp:77] Creating layer conv6_2_mbox_loc_perm
I0907 18:13:21.889817  2825 net.cpp:100] Creating Layer conv6_2_mbox_loc_perm
I0907 18:13:21.889820  2825 net.cpp:434] conv6_2_mbox_loc_perm <- conv6_2_mbox_loc
I0907 18:13:21.889825  2825 net.cpp:408] conv6_2_mbox_loc_perm -> conv6_2_mbox_loc_perm
I0907 18:13:21.889909  2825 net.cpp:150] Setting up conv6_2_mbox_loc_perm
I0907 18:13:21.889915  2825 net.cpp:157] Top shape: 1 10 10 24 (2400)
I0907 18:13:21.889917  2825 net.cpp:165] Memory required for data: 249765640
I0907 18:13:21.889919  2825 layer_factory.hpp:77] Creating layer conv6_2_mbox_loc_flat
I0907 18:13:21.889925  2825 net.cpp:100] Creating Layer conv6_2_mbox_loc_flat
I0907 18:13:21.889928  2825 net.cpp:434] conv6_2_mbox_loc_flat <- conv6_2_mbox_loc_perm
I0907 18:13:21.889933  2825 net.cpp:408] conv6_2_mbox_loc_flat -> conv6_2_mbox_loc_flat
I0907 18:13:21.889957  2825 net.cpp:150] Setting up conv6_2_mbox_loc_flat
I0907 18:13:21.889972  2825 net.cpp:157] Top shape: 1 2400 (2400)
I0907 18:13:21.889977  2825 net.cpp:165] Memory required for data: 249775240
I0907 18:13:21.889981  2825 layer_factory.hpp:77] Creating layer conv6_2_mbox_conf
I0907 18:13:21.889994  2825 net.cpp:100] Creating Layer conv6_2_mbox_conf
I0907 18:13:21.889999  2825 net.cpp:434] conv6_2_mbox_conf <- conv6_2_conv6_2_relu_0_split_2
I0907 18:13:21.890004  2825 net.cpp:408] conv6_2_mbox_conf -> conv6_2_mbox_conf
I0907 18:13:21.893286  2825 net.cpp:150] Setting up conv6_2_mbox_conf
I0907 18:13:21.893298  2825 net.cpp:157] Top shape: 1 126 10 10 (12600)
I0907 18:13:21.893301  2825 net.cpp:165] Memory required for data: 249825640
I0907 18:13:21.893311  2825 layer_factory.hpp:77] Creating layer conv6_2_mbox_conf_perm
I0907 18:13:21.893318  2825 net.cpp:100] Creating Layer conv6_2_mbox_conf_perm
I0907 18:13:21.893323  2825 net.cpp:434] conv6_2_mbox_conf_perm <- conv6_2_mbox_conf
I0907 18:13:21.893332  2825 net.cpp:408] conv6_2_mbox_conf_perm -> conv6_2_mbox_conf_perm
I0907 18:13:21.893419  2825 net.cpp:150] Setting up conv6_2_mbox_conf_perm
I0907 18:13:21.893424  2825 net.cpp:157] Top shape: 1 10 10 126 (12600)
I0907 18:13:21.893427  2825 net.cpp:165] Memory required for data: 249876040
I0907 18:13:21.893432  2825 layer_factory.hpp:77] Creating layer conv6_2_mbox_conf_flat
I0907 18:13:21.893440  2825 net.cpp:100] Creating Layer conv6_2_mbox_conf_flat
I0907 18:13:21.893445  2825 net.cpp:434] conv6_2_mbox_conf_flat <- conv6_2_mbox_conf_perm
I0907 18:13:21.893452  2825 net.cpp:408] conv6_2_mbox_conf_flat -> conv6_2_mbox_conf_flat
I0907 18:13:21.893476  2825 net.cpp:150] Setting up conv6_2_mbox_conf_flat
I0907 18:13:21.893481  2825 net.cpp:157] Top shape: 1 12600 (12600)
I0907 18:13:21.893483  2825 net.cpp:165] Memory required for data: 249926440
I0907 18:13:21.893486  2825 layer_factory.hpp:77] Creating layer conv6_2_mbox_priorbox
I0907 18:13:21.893493  2825 net.cpp:100] Creating Layer conv6_2_mbox_priorbox
I0907 18:13:21.893496  2825 net.cpp:434] conv6_2_mbox_priorbox <- conv6_2_conv6_2_relu_0_split_3
I0907 18:13:21.893502  2825 net.cpp:434] conv6_2_mbox_priorbox <- data_data_0_split_3
I0907 18:13:21.893509  2825 net.cpp:408] conv6_2_mbox_priorbox -> conv6_2_mbox_priorbox
I0907 18:13:21.893537  2825 net.cpp:150] Setting up conv6_2_mbox_priorbox
I0907 18:13:21.893541  2825 net.cpp:157] Top shape: 1 2 2400 (4800)
I0907 18:13:21.893543  2825 net.cpp:165] Memory required for data: 249945640
I0907 18:13:21.893546  2825 layer_factory.hpp:77] Creating layer conv7_2_mbox_loc
I0907 18:13:21.893556  2825 net.cpp:100] Creating Layer conv7_2_mbox_loc
I0907 18:13:21.893560  2825 net.cpp:434] conv7_2_mbox_loc <- conv7_2_conv7_2_relu_0_split_1
I0907 18:13:21.893568  2825 net.cpp:408] conv7_2_mbox_loc -> conv7_2_mbox_loc
I0907 18:13:21.894090  2825 net.cpp:150] Setting up conv7_2_mbox_loc
I0907 18:13:21.894101  2825 net.cpp:157] Top shape: 1 24 5 5 (600)
I0907 18:13:21.894104  2825 net.cpp:165] Memory required for data: 249948040
I0907 18:13:21.894110  2825 layer_factory.hpp:77] Creating layer conv7_2_mbox_loc_perm
I0907 18:13:21.894119  2825 net.cpp:100] Creating Layer conv7_2_mbox_loc_perm
I0907 18:13:21.894124  2825 net.cpp:434] conv7_2_mbox_loc_perm <- conv7_2_mbox_loc
I0907 18:13:21.894130  2825 net.cpp:408] conv7_2_mbox_loc_perm -> conv7_2_mbox_loc_perm
I0907 18:13:21.894218  2825 net.cpp:150] Setting up conv7_2_mbox_loc_perm
I0907 18:13:21.894223  2825 net.cpp:157] Top shape: 1 5 5 24 (600)
I0907 18:13:21.894225  2825 net.cpp:165] Memory required for data: 249950440
I0907 18:13:21.894227  2825 layer_factory.hpp:77] Creating layer conv7_2_mbox_loc_flat
I0907 18:13:21.894232  2825 net.cpp:100] Creating Layer conv7_2_mbox_loc_flat
I0907 18:13:21.894234  2825 net.cpp:434] conv7_2_mbox_loc_flat <- conv7_2_mbox_loc_perm
I0907 18:13:21.894243  2825 net.cpp:408] conv7_2_mbox_loc_flat -> conv7_2_mbox_loc_flat
I0907 18:13:21.894265  2825 net.cpp:150] Setting up conv7_2_mbox_loc_flat
I0907 18:13:21.894270  2825 net.cpp:157] Top shape: 1 600 (600)
I0907 18:13:21.894284  2825 net.cpp:165] Memory required for data: 249952840
I0907 18:13:21.894287  2825 layer_factory.hpp:77] Creating layer conv7_2_mbox_conf
I0907 18:13:21.894302  2825 net.cpp:100] Creating Layer conv7_2_mbox_conf
I0907 18:13:21.894306  2825 net.cpp:434] conv7_2_mbox_conf <- conv7_2_conv7_2_relu_0_split_2
I0907 18:13:21.894315  2825 net.cpp:408] conv7_2_mbox_conf -> conv7_2_mbox_conf
I0907 18:13:21.896214  2825 net.cpp:150] Setting up conv7_2_mbox_conf
I0907 18:13:21.896225  2825 net.cpp:157] Top shape: 1 126 5 5 (3150)
I0907 18:13:21.896229  2825 net.cpp:165] Memory required for data: 249965440
I0907 18:13:21.896234  2825 layer_factory.hpp:77] Creating layer conv7_2_mbox_conf_perm
I0907 18:13:21.896244  2825 net.cpp:100] Creating Layer conv7_2_mbox_conf_perm
I0907 18:13:21.896248  2825 net.cpp:434] conv7_2_mbox_conf_perm <- conv7_2_mbox_conf
I0907 18:13:21.896255  2825 net.cpp:408] conv7_2_mbox_conf_perm -> conv7_2_mbox_conf_perm
I0907 18:13:21.896378  2825 net.cpp:150] Setting up conv7_2_mbox_conf_perm
I0907 18:13:21.896383  2825 net.cpp:157] Top shape: 1 5 5 126 (3150)
I0907 18:13:21.896384  2825 net.cpp:165] Memory required for data: 249978040
I0907 18:13:21.896387  2825 layer_factory.hpp:77] Creating layer conv7_2_mbox_conf_flat
I0907 18:13:21.896404  2825 net.cpp:100] Creating Layer conv7_2_mbox_conf_flat
I0907 18:13:21.896409  2825 net.cpp:434] conv7_2_mbox_conf_flat <- conv7_2_mbox_conf_perm
I0907 18:13:21.896415  2825 net.cpp:408] conv7_2_mbox_conf_flat -> conv7_2_mbox_conf_flat
I0907 18:13:21.896440  2825 net.cpp:150] Setting up conv7_2_mbox_conf_flat
I0907 18:13:21.896445  2825 net.cpp:157] Top shape: 1 3150 (3150)
I0907 18:13:21.896447  2825 net.cpp:165] Memory required for data: 249990640
I0907 18:13:21.896451  2825 layer_factory.hpp:77] Creating layer conv7_2_mbox_priorbox
I0907 18:13:21.896459  2825 net.cpp:100] Creating Layer conv7_2_mbox_priorbox
I0907 18:13:21.896464  2825 net.cpp:434] conv7_2_mbox_priorbox <- conv7_2_conv7_2_relu_0_split_3
I0907 18:13:21.896468  2825 net.cpp:434] conv7_2_mbox_priorbox <- data_data_0_split_4
I0907 18:13:21.896473  2825 net.cpp:408] conv7_2_mbox_priorbox -> conv7_2_mbox_priorbox
I0907 18:13:21.896497  2825 net.cpp:150] Setting up conv7_2_mbox_priorbox
I0907 18:13:21.896500  2825 net.cpp:157] Top shape: 1 2 600 (1200)
I0907 18:13:21.896502  2825 net.cpp:165] Memory required for data: 249995440
I0907 18:13:21.896504  2825 layer_factory.hpp:77] Creating layer conv8_2_mbox_loc
I0907 18:13:21.896512  2825 net.cpp:100] Creating Layer conv8_2_mbox_loc
I0907 18:13:21.896517  2825 net.cpp:434] conv8_2_mbox_loc <- conv8_2_conv8_2_relu_0_split_1
I0907 18:13:21.896526  2825 net.cpp:408] conv8_2_mbox_loc -> conv8_2_mbox_loc
I0907 18:13:21.896894  2825 net.cpp:150] Setting up conv8_2_mbox_loc
I0907 18:13:21.896900  2825 net.cpp:157] Top shape: 1 16 3 3 (144)
I0907 18:13:21.896904  2825 net.cpp:165] Memory required for data: 249996016
I0907 18:13:21.896919  2825 layer_factory.hpp:77] Creating layer conv8_2_mbox_loc_perm
I0907 18:13:21.896925  2825 net.cpp:100] Creating Layer conv8_2_mbox_loc_perm
I0907 18:13:21.896930  2825 net.cpp:434] conv8_2_mbox_loc_perm <- conv8_2_mbox_loc
I0907 18:13:21.896939  2825 net.cpp:408] conv8_2_mbox_loc_perm -> conv8_2_mbox_loc_perm
I0907 18:13:21.897025  2825 net.cpp:150] Setting up conv8_2_mbox_loc_perm
I0907 18:13:21.897032  2825 net.cpp:157] Top shape: 1 3 3 16 (144)
I0907 18:13:21.897037  2825 net.cpp:165] Memory required for data: 249996592
I0907 18:13:21.897039  2825 layer_factory.hpp:77] Creating layer conv8_2_mbox_loc_flat
I0907 18:13:21.897047  2825 net.cpp:100] Creating Layer conv8_2_mbox_loc_flat
I0907 18:13:21.897049  2825 net.cpp:434] conv8_2_mbox_loc_flat <- conv8_2_mbox_loc_perm
I0907 18:13:21.897053  2825 net.cpp:408] conv8_2_mbox_loc_flat -> conv8_2_mbox_loc_flat
I0907 18:13:21.897076  2825 net.cpp:150] Setting up conv8_2_mbox_loc_flat
I0907 18:13:21.897080  2825 net.cpp:157] Top shape: 1 144 (144)
I0907 18:13:21.897083  2825 net.cpp:165] Memory required for data: 249997168
I0907 18:13:21.897089  2825 layer_factory.hpp:77] Creating layer conv8_2_mbox_conf
I0907 18:13:21.897109  2825 net.cpp:100] Creating Layer conv8_2_mbox_conf
I0907 18:13:21.897112  2825 net.cpp:434] conv8_2_mbox_conf <- conv8_2_conv8_2_relu_0_split_2
I0907 18:13:21.897119  2825 net.cpp:408] conv8_2_mbox_conf -> conv8_2_mbox_conf
I0907 18:13:21.898541  2825 net.cpp:150] Setting up conv8_2_mbox_conf
I0907 18:13:21.898552  2825 net.cpp:157] Top shape: 1 84 3 3 (756)
I0907 18:13:21.898555  2825 net.cpp:165] Memory required for data: 250000192
I0907 18:13:21.898558  2825 layer_factory.hpp:77] Creating layer conv8_2_mbox_conf_perm
I0907 18:13:21.898563  2825 net.cpp:100] Creating Layer conv8_2_mbox_conf_perm
I0907 18:13:21.898567  2825 net.cpp:434] conv8_2_mbox_conf_perm <- conv8_2_mbox_conf
I0907 18:13:21.898572  2825 net.cpp:408] conv8_2_mbox_conf_perm -> conv8_2_mbox_conf_perm
I0907 18:13:21.898658  2825 net.cpp:150] Setting up conv8_2_mbox_conf_perm
I0907 18:13:21.898664  2825 net.cpp:157] Top shape: 1 3 3 84 (756)
I0907 18:13:21.898669  2825 net.cpp:165] Memory required for data: 250003216
I0907 18:13:21.898672  2825 layer_factory.hpp:77] Creating layer conv8_2_mbox_conf_flat
I0907 18:13:21.898680  2825 net.cpp:100] Creating Layer conv8_2_mbox_conf_flat
I0907 18:13:21.898686  2825 net.cpp:434] conv8_2_mbox_conf_flat <- conv8_2_mbox_conf_perm
I0907 18:13:21.898692  2825 net.cpp:408] conv8_2_mbox_conf_flat -> conv8_2_mbox_conf_flat
I0907 18:13:21.898713  2825 net.cpp:150] Setting up conv8_2_mbox_conf_flat
I0907 18:13:21.898718  2825 net.cpp:157] Top shape: 1 756 (756)
I0907 18:13:21.898720  2825 net.cpp:165] Memory required for data: 250006240
I0907 18:13:21.898722  2825 layer_factory.hpp:77] Creating layer conv8_2_mbox_priorbox
I0907 18:13:21.898728  2825 net.cpp:100] Creating Layer conv8_2_mbox_priorbox
I0907 18:13:21.898731  2825 net.cpp:434] conv8_2_mbox_priorbox <- conv8_2_conv8_2_relu_0_split_3
I0907 18:13:21.898736  2825 net.cpp:434] conv8_2_mbox_priorbox <- data_data_0_split_5
I0907 18:13:21.898741  2825 net.cpp:408] conv8_2_mbox_priorbox -> conv8_2_mbox_priorbox
I0907 18:13:21.898761  2825 net.cpp:150] Setting up conv8_2_mbox_priorbox
I0907 18:13:21.898764  2825 net.cpp:157] Top shape: 1 2 144 (288)
I0907 18:13:21.898766  2825 net.cpp:165] Memory required for data: 250007392
I0907 18:13:21.898768  2825 layer_factory.hpp:77] Creating layer conv9_2_mbox_loc
I0907 18:13:21.898777  2825 net.cpp:100] Creating Layer conv9_2_mbox_loc
I0907 18:13:21.898779  2825 net.cpp:434] conv9_2_mbox_loc <- conv9_2_conv9_2_relu_0_split_0
I0907 18:13:21.898784  2825 net.cpp:408] conv9_2_mbox_loc -> conv9_2_mbox_loc
I0907 18:13:21.899138  2825 net.cpp:150] Setting up conv9_2_mbox_loc
I0907 18:13:21.899144  2825 net.cpp:157] Top shape: 1 16 1 1 (16)
I0907 18:13:21.899145  2825 net.cpp:165] Memory required for data: 250007456
I0907 18:13:21.899149  2825 layer_factory.hpp:77] Creating layer conv9_2_mbox_loc_perm
I0907 18:13:21.899154  2825 net.cpp:100] Creating Layer conv9_2_mbox_loc_perm
I0907 18:13:21.899159  2825 net.cpp:434] conv9_2_mbox_loc_perm <- conv9_2_mbox_loc
I0907 18:13:21.899169  2825 net.cpp:408] conv9_2_mbox_loc_perm -> conv9_2_mbox_loc_perm
I0907 18:13:21.899255  2825 net.cpp:150] Setting up conv9_2_mbox_loc_perm
I0907 18:13:21.899260  2825 net.cpp:157] Top shape: 1 1 1 16 (16)
I0907 18:13:21.899265  2825 net.cpp:165] Memory required for data: 250007520
I0907 18:13:21.899268  2825 layer_factory.hpp:77] Creating layer conv9_2_mbox_loc_flat
I0907 18:13:21.899276  2825 net.cpp:100] Creating Layer conv9_2_mbox_loc_flat
I0907 18:13:21.899281  2825 net.cpp:434] conv9_2_mbox_loc_flat <- conv9_2_mbox_loc_perm
I0907 18:13:21.899288  2825 net.cpp:408] conv9_2_mbox_loc_flat -> conv9_2_mbox_loc_flat
I0907 18:13:21.899309  2825 net.cpp:150] Setting up conv9_2_mbox_loc_flat
I0907 18:13:21.899313  2825 net.cpp:157] Top shape: 1 16 (16)
I0907 18:13:21.899315  2825 net.cpp:165] Memory required for data: 250007584
I0907 18:13:21.899317  2825 layer_factory.hpp:77] Creating layer conv9_2_mbox_conf
I0907 18:13:21.899327  2825 net.cpp:100] Creating Layer conv9_2_mbox_conf
I0907 18:13:21.899329  2825 net.cpp:434] conv9_2_mbox_conf <- conv9_2_conv9_2_relu_0_split_1
I0907 18:13:21.899343  2825 net.cpp:408] conv9_2_mbox_conf -> conv9_2_mbox_conf
I0907 18:13:21.900713  2825 net.cpp:150] Setting up conv9_2_mbox_conf
I0907 18:13:21.900723  2825 net.cpp:157] Top shape: 1 84 1 1 (84)
I0907 18:13:21.900727  2825 net.cpp:165] Memory required for data: 250007920
I0907 18:13:21.900732  2825 layer_factory.hpp:77] Creating layer conv9_2_mbox_conf_perm
I0907 18:13:21.900741  2825 net.cpp:100] Creating Layer conv9_2_mbox_conf_perm
I0907 18:13:21.900746  2825 net.cpp:434] conv9_2_mbox_conf_perm <- conv9_2_mbox_conf
I0907 18:13:21.900754  2825 net.cpp:408] conv9_2_mbox_conf_perm -> conv9_2_mbox_conf_perm
I0907 18:13:21.900837  2825 net.cpp:150] Setting up conv9_2_mbox_conf_perm
I0907 18:13:21.900842  2825 net.cpp:157] Top shape: 1 1 1 84 (84)
I0907 18:13:21.900845  2825 net.cpp:165] Memory required for data: 250008256
I0907 18:13:21.900847  2825 layer_factory.hpp:77] Creating layer conv9_2_mbox_conf_flat
I0907 18:13:21.900851  2825 net.cpp:100] Creating Layer conv9_2_mbox_conf_flat
I0907 18:13:21.900853  2825 net.cpp:434] conv9_2_mbox_conf_flat <- conv9_2_mbox_conf_perm
I0907 18:13:21.900858  2825 net.cpp:408] conv9_2_mbox_conf_flat -> conv9_2_mbox_conf_flat
I0907 18:13:21.900878  2825 net.cpp:150] Setting up conv9_2_mbox_conf_flat
I0907 18:13:21.900883  2825 net.cpp:157] Top shape: 1 84 (84)
I0907 18:13:21.900885  2825 net.cpp:165] Memory required for data: 250008592
I0907 18:13:21.900887  2825 layer_factory.hpp:77] Creating layer conv9_2_mbox_priorbox
I0907 18:13:21.900892  2825 net.cpp:100] Creating Layer conv9_2_mbox_priorbox
I0907 18:13:21.900895  2825 net.cpp:434] conv9_2_mbox_priorbox <- conv9_2_conv9_2_relu_0_split_2
I0907 18:13:21.900899  2825 net.cpp:434] conv9_2_mbox_priorbox <- data_data_0_split_6
I0907 18:13:21.900907  2825 net.cpp:408] conv9_2_mbox_priorbox -> conv9_2_mbox_priorbox
I0907 18:13:21.900928  2825 net.cpp:150] Setting up conv9_2_mbox_priorbox
I0907 18:13:21.900933  2825 net.cpp:157] Top shape: 1 2 16 (32)
I0907 18:13:21.900934  2825 net.cpp:165] Memory required for data: 250008720
I0907 18:13:21.900936  2825 layer_factory.hpp:77] Creating layer mbox_loc
I0907 18:13:21.900943  2825 net.cpp:100] Creating Layer mbox_loc
I0907 18:13:21.900946  2825 net.cpp:434] mbox_loc <- conv4_3_norm_mbox_loc_flat
I0907 18:13:21.900949  2825 net.cpp:434] mbox_loc <- fc7_mbox_loc_flat
I0907 18:13:21.900954  2825 net.cpp:434] mbox_loc <- conv6_2_mbox_loc_flat
I0907 18:13:21.900957  2825 net.cpp:434] mbox_loc <- conv7_2_mbox_loc_flat
I0907 18:13:21.900960  2825 net.cpp:434] mbox_loc <- conv8_2_mbox_loc_flat
I0907 18:13:21.900964  2825 net.cpp:434] mbox_loc <- conv9_2_mbox_loc_flat
I0907 18:13:21.900967  2825 net.cpp:408] mbox_loc -> mbox_loc
I0907 18:13:21.900992  2825 net.cpp:150] Setting up mbox_loc
I0907 18:13:21.900998  2825 net.cpp:157] Top shape: 1 34928 (34928)
I0907 18:13:21.901000  2825 net.cpp:165] Memory required for data: 250148432
I0907 18:13:21.901005  2825 layer_factory.hpp:77] Creating layer mbox_conf
I0907 18:13:21.901011  2825 net.cpp:100] Creating Layer mbox_conf
I0907 18:13:21.901015  2825 net.cpp:434] mbox_conf <- conv4_3_norm_mbox_conf_flat
I0907 18:13:21.901020  2825 net.cpp:434] mbox_conf <- fc7_mbox_conf_flat
I0907 18:13:21.901022  2825 net.cpp:434] mbox_conf <- conv6_2_mbox_conf_flat
I0907 18:13:21.901026  2825 net.cpp:434] mbox_conf <- conv7_2_mbox_conf_flat
I0907 18:13:21.901028  2825 net.cpp:434] mbox_conf <- conv8_2_mbox_conf_flat
I0907 18:13:21.901032  2825 net.cpp:434] mbox_conf <- conv9_2_mbox_conf_flat
I0907 18:13:21.901038  2825 net.cpp:408] mbox_conf -> mbox_conf
I0907 18:13:21.901064  2825 net.cpp:150] Setting up mbox_conf
I0907 18:13:21.901069  2825 net.cpp:157] Top shape: 1 183372 (183372)
I0907 18:13:21.901072  2825 net.cpp:165] Memory required for data: 250881920
I0907 18:13:21.901077  2825 layer_factory.hpp:77] Creating layer mbox_priorbox
I0907 18:13:21.901082  2825 net.cpp:100] Creating Layer mbox_priorbox
I0907 18:13:21.901087  2825 net.cpp:434] mbox_priorbox <- conv4_3_norm_mbox_priorbox
I0907 18:13:21.901096  2825 net.cpp:434] mbox_priorbox <- fc7_mbox_priorbox
I0907 18:13:21.901099  2825 net.cpp:434] mbox_priorbox <- conv6_2_mbox_priorbox
I0907 18:13:21.901103  2825 net.cpp:434] mbox_priorbox <- conv7_2_mbox_priorbox
I0907 18:13:21.901104  2825 net.cpp:434] mbox_priorbox <- conv8_2_mbox_priorbox
I0907 18:13:21.901108  2825 net.cpp:434] mbox_priorbox <- conv9_2_mbox_priorbox
I0907 18:13:21.901113  2825 net.cpp:408] mbox_priorbox -> mbox_priorbox
I0907 18:13:21.901136  2825 net.cpp:150] Setting up mbox_priorbox
I0907 18:13:21.901141  2825 net.cpp:157] Top shape: 1 2 34928 (69856)
I0907 18:13:21.901144  2825 net.cpp:165] Memory required for data: 251161344
I0907 18:13:21.901145  2825 layer_factory.hpp:77] Creating layer mbox_conf_reshape
I0907 18:13:21.901150  2825 net.cpp:100] Creating Layer mbox_conf_reshape
I0907 18:13:21.901154  2825 net.cpp:434] mbox_conf_reshape <- mbox_conf
I0907 18:13:21.901160  2825 net.cpp:408] mbox_conf_reshape -> mbox_conf_reshape
I0907 18:13:21.901190  2825 net.cpp:150] Setting up mbox_conf_reshape
I0907 18:13:21.901196  2825 net.cpp:157] Top shape: 1 8732 21 (183372)
I0907 18:13:21.901199  2825 net.cpp:165] Memory required for data: 251894832
I0907 18:13:21.901206  2825 layer_factory.hpp:77] Creating layer mbox_conf_softmax
I0907 18:13:21.901212  2825 net.cpp:100] Creating Layer mbox_conf_softmax
I0907 18:13:21.901216  2825 net.cpp:434] mbox_conf_softmax <- mbox_conf_reshape
I0907 18:13:21.901221  2825 net.cpp:408] mbox_conf_softmax -> mbox_conf_softmax
I0907 18:13:21.901275  2825 net.cpp:150] Setting up mbox_conf_softmax
I0907 18:13:21.901280  2825 net.cpp:157] Top shape: 1 8732 21 (183372)
I0907 18:13:21.901283  2825 net.cpp:165] Memory required for data: 252628320
I0907 18:13:21.901284  2825 layer_factory.hpp:77] Creating layer mbox_conf_flatten
I0907 18:13:21.901288  2825 net.cpp:100] Creating Layer mbox_conf_flatten
I0907 18:13:21.901290  2825 net.cpp:434] mbox_conf_flatten <- mbox_conf_softmax
I0907 18:13:21.901294  2825 net.cpp:408] mbox_conf_flatten -> mbox_conf_flatten
I0907 18:13:21.901317  2825 net.cpp:150] Setting up mbox_conf_flatten
I0907 18:13:21.901322  2825 net.cpp:157] Top shape: 1 183372 (183372)
I0907 18:13:21.901326  2825 net.cpp:165] Memory required for data: 253361808
I0907 18:13:21.901330  2825 layer_factory.hpp:77] Creating layer detection_out
I0907 18:13:21.901345  2825 net.cpp:100] Creating Layer detection_out
I0907 18:13:21.901350  2825 net.cpp:434] detection_out <- mbox_loc
I0907 18:13:21.901352  2825 net.cpp:434] detection_out <- mbox_conf_flatten
I0907 18:13:21.901355  2825 net.cpp:434] detection_out <- mbox_priorbox
I0907 18:13:21.901360  2825 net.cpp:408] detection_out -> detection_out
I0907 18:13:21.902789  2825 net.cpp:150] Setting up detection_out
I0907 18:13:21.902799  2825 net.cpp:157] Top shape: 1 1 1 7 (7)
I0907 18:13:21.902801  2825 net.cpp:165] Memory required for data: 253361836
I0907 18:13:21.902804  2825 layer_factory.hpp:77] Creating layer detection_eval
I0907 18:13:21.902812  2825 net.cpp:100] Creating Layer detection_eval
I0907 18:13:21.902814  2825 net.cpp:434] detection_eval <- detection_out
I0907 18:13:21.902818  2825 net.cpp:434] detection_eval <- label
I0907 18:13:21.902822  2825 net.cpp:408] detection_eval -> detection_eval
I0907 18:13:21.903641  2825 net.cpp:150] Setting up detection_eval
I0907 18:13:21.903647  2825 net.cpp:157] Top shape: 1 1 21 5 (105)
I0907 18:13:21.903650  2825 net.cpp:165] Memory required for data: 253362256
I0907 18:13:21.903652  2825 net.cpp:228] detection_eval does not need backward computation.
I0907 18:13:21.903659  2825 net.cpp:228] detection_out does not need backward computation.
I0907 18:13:21.903663  2825 net.cpp:228] mbox_conf_flatten does not need backward computation.
I0907 18:13:21.903666  2825 net.cpp:228] mbox_conf_softmax does not need backward computation.
…
I0910 23:57:16.360081  4379 net.cpp:322] The NetState phase (0) differed from the phase (1) specified by a rule in layer label
I0910 23:57:16.360235  4379 net.cpp:58] Initializing net from parameters:
state {
phase: TRAIN
level: 0
stage: ""
}
layer {
name: "data"
type: "Data"
top: "data"
include {
phase: TRAIN
}
data_param {
source: "/home/wills/Projects/sample_sets/mylmdb/train_images"
batch_size: 16
backend: LMDB
}
}
layer {
name: "label"
type: "Data"
top: "label"
include {
phase: TRAIN
}
data_param {
source: "/home/wills/Projects/sample_sets/mylmdb/train_labels"
batch_size: 16
backend: LMDB
}
}
layer {
name: "scale"
type: "Power"
bottom: "data"
top: "scale"
power_param {
scale: 0.004
}
}
layer {
name: "hidden"
type: "InnerProduct"
bottom: "scale"
top: "output"
inner_product_param {
num_output: 2
}
}
layer {
name: "loss"
type: "EuclideanLoss"
bottom: "output"
bottom: "label"
top: "loss"
}
I0910 23:57:16.360294  4379 layer_factory.hpp:77] Creating layer data
I0910 23:57:16.360852  4379 net.cpp:100] Creating Layer data
I0910 23:57:16.360868  4379 net.cpp:408] data -> data
I0910 23:57:16.361071  4381 db_lmdb.cpp:35] Opened lmdb /home/wills/Projects/sample_sets/mylmdb/train_images
I0910 23:57:16.361322  4379 data_layer.cpp:41] output data size: 16,1,50,50
I0910 23:57:16.361367  4379 net.cpp:150] Setting up data
I0910 23:57:16.361385  4379 net.cpp:157] Top shape: 16 1 50 50 (40000)
I0910 23:57:16.361387  4379 net.cpp:165] Memory required for data: 160000
I0910 23:57:16.361394  4379 layer_factory.hpp:77] Creating layer label
I0910 23:57:16.361476  4379 net.cpp:100] Creating Layer label
I0910 23:57:16.361485  4379 net.cpp:408] label -> label
I0910 23:57:16.361616  4383 db_lmdb.cpp:35] Opened lmdb /home/wills/Projects/sample_sets/mylmdb/train_labels
I0910 23:57:16.361647  4379 data_layer.cpp:41] output data size: 16,1,1,2
I0910 23:57:16.361675  4379 net.cpp:150] Setting up label
I0910 23:57:16.361682  4379 net.cpp:157] Top shape: 16 1 1 2 (32)
I0910 23:57:16.361685  4379 net.cpp:165] Memory required for data: 160128
I0910 23:57:16.361686  4379 layer_factory.hpp:77] Creating layer scale
I0910 23:57:16.361696  4379 net.cpp:100] Creating Layer scale
I0910 23:57:16.361699  4379 net.cpp:434] scale <- data
I0910 23:57:16.361709  4379 net.cpp:408] scale -> scale
I0910 23:57:16.361719  4379 net.cpp:150] Setting up scale
I0910 23:57:16.361723  4379 net.cpp:157] Top shape: 16 1 50 50 (40000)
I0910 23:57:16.361726  4379 net.cpp:165] Memory required for data: 320128
I0910 23:57:16.361727  4379 layer_factory.hpp:77] Creating layer hidden
I0910 23:57:16.361733  4379 net.cpp:100] Creating Layer hidden
I0910 23:57:16.361735  4379 net.cpp:434] hidden <- scale
I0910 23:57:16.361739  4379 net.cpp:408] hidden -> output
I0910 23:57:16.361759  4379 net.cpp:150] Setting up hidden
I0910 23:57:16.361763  4379 net.cpp:157] Top shape: 16 2 (32)
I0910 23:57:16.361768  4379 net.cpp:165] Memory required for data: 320256
I0910 23:57:16.361783  4379 layer_factory.hpp:77] Creating layer loss
I0910 23:57:16.361788  4379 net.cpp:100] Creating Layer loss
I0910 23:57:16.361806  4379 net.cpp:434] loss <- output
I0910 23:57:16.361810  4379 net.cpp:434] loss <- label
I0910 23:57:16.361814  4379 net.cpp:408] loss -> loss
I0910 23:57:16.361822  4379 net.cpp:150] Setting up loss
…
